Project5_Recognition_using_Deep_Networks/DeepNetwork.pth (torch, 90416 bytes, 8 tensors)

conv1.weight f4 [10, 1, 5, 5]
00000000: b7d1 db3d 8d3d fdbd f2a7 91bd b8c2 e1bd
00000010: 5228 7cbe e0b1 1ebe 6ac7 02be 3f61 81bd
00000020: 5c6a 54be b19a 82be ba5e 84be 36c8 78bd
00000030: 9c66 40be 7c8e 80bd 54a3 6ebe 87be 373c
00000040: 4b8f 6abe b1cb 23be 791b 69be 9267 193e
00000050: f7a9 e73d ebf7 263d 0e36 0f3d 1742 5e3e
00000060: 46aa 263e 29d0 523e b6a2 403e a61b fa3c
00000070: 0bc8 0abe 53c2 d63d 01de b8bd 9836 5f3e
00000080: 675d 143e 144c 273e c5e7 f5bd 93b7 4dbe
00000090: a8f9 5b3d 27e1 2c3d 8282 02be 39d5 6c3d
000000a0: 4558 703c 8abd 563d f720 b53b 2caa 563e
000000b0: 8594 5dbd 1bb7 2bbe fe4c 2cbe 33b0 ab3d
000000c0: a2b0 f0bc 2b62 1d3e ecfb 88be fff4 d23c
000000d0: 7ef0 503c 0fd5 82be d5c8 26be 8113 6cbe
000000e0: 72e9 83bd d453 23be 6f95 94be f425 fdbc
000000f0: 9132 54be 0fde 50be ba4f 58be be9e 96be
00000100: 9ab0 7fbe 05d2 523d ec06 96be e8ad 313d
00000110: 9700 9fbd fc50 11be 9b50 b5bb 43de ff3c
00000120: 3131 cc3c 5645 33be 5d5c 233e 94ba 6dbe
00000130: 869c 28bd 0960 9dbd fa74 6a3d e81d fd3d
00000140: 81f4 14be 5707 edbc 24c8 bf3d e1ff b0bd
00000150: 3ddd 0d3b 0476 2b3e 97c9 fe3d 108e d8bd
00000160: 8136 aebc 77b4 243e 200c 9fbb d4aa 353e
00000170: 8ab7 4dbd 4654 2f3e 77b4 29be d4d1 dfbd
00000180: f0b4 b83d 15ce 9fbd 43e5 3c3e 46f3 1fbe
00000190: 0583 073e 8399 64bd a4a7 57be 2b44 573d
000001a0: ed23 2abe 9822 bd3c e99e e1bd a090 bbbd
000001b0: 35f0 34be 4766 33be b69b 143e 3c50 e33c
000001c0: 04ce 983d 4a79 14bc 0944 d2bd 91b5 53be
000001d0: 19ac edbd 82b7 f03d ab9c 41be 7e75 54be
000001e0: 3b7c 813d 5e04 48be 0a70 f2bd 41d2 e13c
000001f0: ba8d e6bc bfcf 113e 14b4 a5bd 07e6 a6bd
00000200: cfee 27bc 1b1e 82bd 2bb9 f03d 5070 febd
00000210: d231 d7bd 3c23 68be be5e a4bc b6e3 183e
00000220: eec6 3d3d 2463 34be dd03 06bd 368e d23d
00000230: a19d 303e 7a96 da3d d2f4 a5bd 55dc d73d
00000240: a671 0dbd 1d8c 93bb fe1a cb3d a190 203e
00000250: 8988 e3bd 8f09 173e e470 973d 0041 69be
00000260: c717 e5bd 712e a6bd 43cf 6d3e c028 00be
00000270: 0d0f 06be 1b3f 493d 0f16 803e 3beb 313e
00000280: 2c7a 2b3c bb51 93bd 639c 353e 5f15 403e
00000290: 74a9 b7bc 0758 393d c637 cf3c 99bf 693e
000002a0: 7ebc 2d3d 0eff b13d 7e5a f23c 290e 65bd
000002b0: 9f54 dfbd 059f ec3d 2be0 4cbd 1964 a8bd
000002c0: 95c1 64bc ed30 2e3c 6862 4e3d 8dfd eabd
000002d0: f403 1d3e dfa3 3abe c417 6dbd 3825 58bc
000002e0: 389c 923d d13c 1bbd 10f9 04bd 1ba8 e73d
000002f0: 1268 a8bd d87d 16bd 78b5 f3bd cdbd 55bd
00000300: e175 2d3e 79ae 4ebc 17fe ffbd 9011 043d
00000310: 351f 3b3e abd6 48be 4905 47be d043 0cbe
00000320: c783 12bc 7b8d 013e 293c 6bbe b071 2d3e
00000330: 2df0 2b3e 359d 59be bb9a 3abe f5a1 c0bd
00000340: 5f76 403e c724 513e e7a0 3a3e 7b1b 0b3e
00000350: f947 bcbd 666a 093e 2c4d 103e 83bd 2d3e
00000360: a30d 4b3b 1ab4 1bbe 450f b63d 2833 013e
00000370: 97d8 bd3b 9d11 b73c 6b48 c6bd d376 2cbe
00000380: 2734 29bc bf43 723c 871b fdbd a7c5 023e
00000390: 8667 8f3d 8df1 2bbe 4e43 5c3e c069 2f3e
000003a0: 9003 04bd cd0c b83c 8076 aebd a43b 183e
000003b0: 592c 973d b563 893d 6598 61be 16de 76be
000003c0: eb71 c63d f76e 253e 1295 5bbe eece 4b3c
000003d0: b042 1abe 1729 703e a3d7 5c3e 76f4 5cbd
000003e0: 142e 51be 3ae8 89bc
0.10733359 -0.123652555 -0.07112111 -0.11023468 -0.24624756 -0.15497541 -0.12771383 -0.06317376
-0.20743698 -0.25508645 -0.2585352 -0.06073781 -0.18789142 -0.06277177 -0.23304492 0.011214859
-0.22906224 -0.15995671 -0.22764386 0.14980915 0.11311715 0.040763777 0.03496366 0.21704899
0.16275892 0.2058722 0.1881207 0.030530762 -0.13552873 0.10486283 -0.09026719 0.2179817
0.14488755 0.16337615 -0.12007097 -0.2008956 0.053704888 0.04220691 -0.12745097 0.057820532
0.014669483 0.052426852 0.0055276114 0.20963353 -0.054096717 -0.16769068 -0.16826245 0.08383217
-0.0293811 0.1536948 -0.267547 0.025751589 0.01275265 -0.25553176 -0.16287549 -0.23054315
-0.064410105 -0.15949947 -0.2902026 -0.030901887 -0.20722415 -0.20397209 -0.21124163 -0.29417986
-0.24969712 0.05146982 -0.29302156 0.04337874 -0.077637844 -0.1419105 -0.0055332906 0.031233912
0.0249258 -0.17506918 0.15953203 -0.23215705 -0.041164897 -0.07684333 0.057240464 0.1235922
-0.14546396 -0.028934164 0.09364346 -0.08642555 0.002164676 0.16744238 0.12440794 -0.10573971
-0.021266224 0.16084467 -0.0048537403 0.17740947 -0.050223865 0.17121992 -0.16572748 -0.109286934
0.09018886 -0.07802979 0.18446831 -0.15620145 0.13233574 -0.055810463 -0.21060044 0.052555244
-0.16615267 0.023087785 -0.11016638 -0.091584444 -0.17669757 -0.17519484 0.14512524 0.02774822
0.07461169 -0.009062121 -0.10266883 -0.20674731 -0.11605091 0.11753751 -0.1890742 -0.20747945
0.06322523 -0.19532916 -0.11837776 0.027566077 -0.028143752 0.14239405 -0.08090988 -0.08149343
-0.0102498075 -0.063533984 0.11754068 -0.12423766 -0.10507549 -0.22669691 -0.020064708 0.14930615
0.046332292 -0.17615944 -0.032718528 0.10281031 0.1724763 0.106732324 -0.081033364 0.10540072
-0.03453221 -0.004502787 0.09917258 0.15680172 -0.111100264 0.1474974 0.07394579 -0.22778702
-0.11186176 -0.08114327 0.23223595 -0.12515545 -0.13091679 0.049132448 0.2501683 0.1737489
0.01046614 -0.07193323 0.17735438 0.18758152 -0.022419669 0.045249965 0.02529515 0.22826995
0.04241609 0.08691226 0.029584166 -0.055921707 -0.10904812 0.11553768 -0.05001847 -0.08222217
-0.013962169 0.010631782 0.050386816 -0.11474142 0.15333539 -0.18226574 -0.057883993 -0.013192467
0.071587026 -0.037899796 -0.032464087 0.113113604 -0.08222975 -0.036741108 -0.11899847 -0.05218296
0.16939498 -0.01261484 -0.12499636 0.03224331 0.18273623 -0.1961314 -0.1943561 -0.13697743
-0.008942551 0.12651627 -0.22972168 0.169379 0.16790839 -0.21251376 -0.18223087 -0.09405891
0.18795155 0.20424186 0.18225442 0.13584702 -0.09193415 0.13419494 0.14091939 0.16966824
0.003098347 -0.15205422 0.08889631 0.12617171 0.005793642 0.022347266 -0.096817814 -0.16842203
-0.0103273755 0.01478666 -0.12358766 0.12770711 0.070021674 -0.16791363 0.2151005 0.17130184
-0.03222996 0.022467041 -0.08518696 0.14866501 0.073815055 0.06708471 -0.2203079 -0.24108157
0.09689697 0.16155611 -0.21443585 0.012439473 -0.15064502 0.23453175 0.21566634 -0.053944074
-0.20427734 -0.016834367

conv1.bias f4 [10]
00000000: 4ec8 e3bd 95b9 5abd a3d2 583e d3da 313d
00000010: faac 12be abd2 1d3e df89 893e 22cb 3ebd
00000020: bc23 f63d b1db dcbc
-0.111221895 -0.05339964 0.21174102 0.043421578 -0.14323798 0.15412395 0.26863 -0.04658044
0.120185345 -0.026960226

conv2.weight f4 [20, 10, 5, 5]
00000000: 541c 8e3d ded3 ac3d eacb 6bbc 35dd 473d
00000010: 3906 953d fabd 62bd 04d4 0f3c e220 4dbc
00000020: 2bfc 153b a4be cc3d f58a abbc a7e7 0f3d
00000030: 9731 0fbd 933e 373b 3571 533d 0d70 923d
00000040: 259a 19bd 959c bbbd 4cb4 cdbd 6030 d6bc
00000050: d01e 093d ed56 9b3b 7a83 1fbc 433e 503d
00000060: 5807 0b3c 43dc 773d a491 323d 68f7 ddbc
00000070: b88c 103d 0af4 493d b328 f2bc 9c3c ae3d
00000080: 1f71 4a3d d3ee 0d3d 776e 4dbc 09ff 2abd
00000090: 2515 ad3d 2493 443c c29d a73d 47be 80bd
000000a0: 03ce 45bd c20c 253d 25ba 59bc e6db 9cbc
000000b0: 7741 29bd b438 823d 69f1 c23c fbca 153d
000000c0: 1b76 36bd c22b bcbc ffdc 8e39 9775 823d
000000d0: 3189 ab3d 7e11 af3d 5db5 cd3d b6fc 4ebc
000000e0: bc0f 7dbd bbf6 8fbd ab7a 143d 313a c63d
000000f0: bfe2 e9bc 3b1c 32bd 23ee 40bd 5997 3cbd
00000100: 159b 6fbd e326 7e3d b31e 043d ff2c dbbd
00000110: 77d4 ddbd 3f78 f03c 5936 693d 8941 c2bd
00000120: aa8e 77bb 77ba ba3b cca7 5d3b c9be 3dbd
00000130: 2a13 283d 93b9 efbb 1410 29bd ca9a e4bb
00000140: 7a21 283d b047 eebc 6bd8 723d ac79 b33c
00000150: c94f 103d 60f1 3abd 9c5b 1abc af15 a9bc
00000160: 0e84 04bd a178 543d fccb 593d c651 323d
00000170: ea37 afbc 0239 1dbd ef8c 4d3d b43f 663d
00000180: 07fa d23b 571a 163d ff3f 7abd c3cb 8ebd
00000190: c361 ae3c 2541 c93c d7f9 8b3d ee97 6f3d
000001a0: 371f 5d3d f9cf a6bc 3401 a73c 396f 1fbd
000001b0: 229d 19bd d78d 493b 1f5d 37bd 1214 70bd
000001c0: 4802 b7bc 5729 b7bc b38e d23b 9079 a9bc
000001d0: c834 3cbd ca0d 783c d71a c938 d010 953d
000001e0: c0ef 12bd 59d8 3abd 87b0 27bd 8836 1abd
000001f0: 4ca6 abbc 8423 303d a0d7 5f3d 14db ca3b
00000200: e9d9 893d 78e9 3ebd 21cb 8fbc b580 7cbc
00000210: 066d e6bc a567 cd3d e8a1 803d f5e5 683d
00000220: a24d 213d b8df c13c 1760 a9bb 5c57 73bc
00000230: 2fc7 d13c ff0e 4b3d 4131 633d 6625 573d
00000240: 356d 973d d75b 7a3d 70ea c9ba ddfe 04bd
00000250: 4570 49bb c986 c7bb 8ce4 263d 9232 163a
00000260: d834 1a3d 814b 6b3d 41b4 1bbd 1858 b23d
00000270: cc72 933d 33a3 16bd 74be 88bd 8adc 45bd
00000280: 8d2f 35bd 89d2 7e3a 8af3 573d 6c79 473d
00000290: 726e a9bc 9a89 e73c 8e32 a33d 45fd 9f3d
000002a0: ba70 a63d 724a 3b3d 09d4 773d 831b e03d
000002b0: a52b 2fba 6905 4e3d df8e 8e3c 149a c2bc
000002c0: e76e 413d f3b2 543c 89ac 863d 965e 51bd
000002d0: e545 2c3d aa1d 8bbd 5a58 6dbd 0da7 b6bc
000002e0: c307 873d 14d5 92bc 0d08 45bd db4b 80bd
000002f0: 18ad 73bc 1e53 47bd e592 103c a6d6 6abb
00000300: 99d6 96bc 411e 37bc 1d01 3abd 6c93 81bd
00000310: bedf 55bd 4d4f 573d 3eea 2c3d ded6 c13c
00000320: 4127 3e3d 7666 2fbd 4e0f edbc d4c0 b2bc
00000330: babb 053d 766f dc3c 2c59 a8b9 24ae 31bd
00000340: f3ce 0a3c 158e 103d 0c7b ec3c 48f9 813d
00000350: 815d 033d 0395 82bc 5e9d 543c 3a9f 843d
00000360: f69c 57bc 2592 fe3c 7657 2f3d d7da bdbc
00000370: 973b c63a 1f28 b23c 1a94 243d 394a 633d
00000380: be7c 943b e616 9539 3019 563b 8100 0f3b
00000390: 8626 8dbc 7041 13bd 53f6 81bd 3cf1 96bc
000003a0: 6b09 04bc ee42 853d d040 8c3d 4dd9 79ba
000003b0: d6e5 85bd 7f2d cfbc b5e5 0e3d 79da b23d
000003c0: 000e 82bd 2240 87bc e06f 16bc 134f d23d
000003d0: 980b a63d 0a71 be3c 3c9b c7bc 8d45 c13d
000003e0: 690a 0c3d eb24 d93c 1745 2c3d 6e39 eabc
000003f0: 0748 3c3d b675 113d 7895 433d 2260 873d
0.06938997 0.08438848 -0.014391879 0.048794944 0.072765775 -0.055356957 0.008778576 -0.012520047
0.00228859 0.09997299 -0.020940283 0.03513303 -0.034959402 0.002796088 0.051621635 0.07150278
-0.03750052 -0.09160725 -0.100441545 -0.026146114 0.03347665 0.004740587 -0.009735936 0.050840627
0.008485638 0.060512792 0.043595925 -0.027095512 0.03529045 0.049305 -0.029560423 0.08507654
0.049424287 0.03465159 -0.012538544 -0.041747127 0.084512986 0.011997972 0.08184387 -0.062862925
-0.04829217 0.04029537 -0.013289009 -0.019147824 -0.041322198 0.063584715 0.023796754 0.03657053
-0.044546228 -0.022970084 0.00027249006 0.06370085 0.083757766 0.08548258 0.10044358 -0.012633493
-0.061782584 -0.07029482 0.036249798 0.09679068 -0.028550504 -0.043483954 -0.047102105 -0.046042774
-0.058497507 0.062048804 0.03225584 -0.10701942 -0.1083154 0.029354213 0.056936596 -0.09485156
-0.0037774243 0.005698498 0.0033821939 -0.046324525 0.0410339 -0.0073158233 -0.0412751 -0.00697646
0.04104755 -0.029086918 0.059288424 0.021908604 0.03523234 -0.04564035 -0.009421255 -0.020640222
-0.0323525 0.051872853 0.05317305 0.043535016 -0.021388967 -0.038384445 0.050183233 0.056213096
0.006438497 0.036646213 -0.061096188 -0.06972458 0.02128685 0.024567196 0.068347625 0.0584945
0.053984847 -0.020362841 0.020386316 -0.03892443 -0.03750337 0.003075471 -0.04476654 -0.05861289
-0.022339955 -0.02235858 0.0064257025 -0.020687848 -0.045948774 0.015140006 9.589426e-05 0.07278597
-0.035873175 -0.04561648 -0.040939834 -0.03764966 -0.02095332 0.04300262 0.054648995 0.006190667
0.06731016 -0.046609372 -0.017552914 -0.0154115455 -0.028128158 0.10029534 0.06280881 0.05685993
0.039380677 0.023666248 -0.0051689255 -0.014852371 0.025607673 0.04957485 0.055466894 0.0525259
0.073938765 0.06112274 -0.0015404951 -0.03246962 -0.0030737084 -0.0060890657 0.040745303 0.00057295815
0.037648052 0.057445053 -0.0380137 0.08708209 0.0719963 -0.036776733 -0.06676951 -0.048306026
-0.0442348 0.0009720703 0.05272249 0.04869978 -0.020682547 0.028263856 0.07968627 0.07811979
0.0812697 0.045725293 0.060504947 0.109427474 -0.0006682224 0.05029813 0.01740211 -0.02375511
0.047224905 0.012982118 0.06575877 -0.051115595 0.042058844 -0.06792767 -0.057945587 -0.022296453
0.06593277 -0.01792387 -0.04810338 -0.06264468 -0.014872812 -0.04866325 0.008824085 -0.0035833507
-0.018412875 -0.011176647 -0.045411218 -0.063269466 -0.05221533 0.05256586 0.04221558 0.023662027
0.046424154 -0.042822324 -0.028937962 -0.021820463 0.032649733 0.026908617 -0.00032109895 -0.043378964
0.008472192 0.03529175 0.028867267 0.06346375 0.032071594 -0.015940195 0.012976972 0.064756826
-0.013159981 0.031075547 0.04280802 -0.02317564 0.001512396 0.021747647 0.040180303 0.055490706
0.004531472 0.00028436555 0.0032668822 0.0021820369 -0.017230283 -0.035951078 -0.06345811 -0.018425576
-0.008058886 0.065069064 0.068482995 -0.00095309765 -0.06537978 -0.025290249 0.034887034 0.087330766
-0.063503265 -0.016510073 -0.0091819465 0.102689885 0.0810768 0.02324726 -0.024366014 0.09437094
0.034189615 0.026506862 0.042058077 -0.028591838 0.045967128 0.03551265 0.047749966 0.06610133

conv2.bias f4 [20]
00000000: ded4 423c 2996 64bd 1958 86bc 1909 093d
00000010: 379a 0d3d 1fbf ebbc 3f09 953d 2b59 81bc
00000020: 77b7 c9bc 09bc 913c 76e6 933d 2ad8 ddbc
00000030: b7b0 323d d734 12bd 4d68 a53d 773b 9fba
00000040: 0829 e3bc df3a 78bd 293a b03c 8b24 623b
0.011891572 -0.055807266 -0.01639943 0.03345594 0.0345709 -0.028777657 0.07277154 -0.015789589
-0.024623616 0.017789857 0.07221691 -0.027080614 0.04362556 -0.035694923 0.080765344 -0.0012148459
-0.027729526 -0.06060302 0.021512108 0.0034506645

fc1.weight f4 [50, 320]
00000000: 82cc 123b bde7 703d 129e 0bbd 2599 663d
00000010: de83 4bbc 6b97 45bd dba4 be3c 16be dc3d
00000020: 8e71 793d afd9 a23c 76c5 5ebc f82b 013d
00000030: 78cf 11bc 85b4 53bd bea3 bd3c 2cf3 8abd
00000040: 59f2 55bc 3c04 22bd 703a 2fbd 6b0d 103d
00000050: 7e9d 29bd d552 e23c 0231 50bd 06e3 393d
00000060: 9a23 42bd 0c7c 143d 0a3a 0bbd 4758 23bd
00000070: cd7a c73c f197 05bd 694f 17bd e233 4dbd
00000080: 296d 713d 4630 803c 3d81 7bbd f354 a53c
00000090: d0be 823d ca31 18bd c0e6 08bd 6fff c3bc
000000a0: 43ba a63c 8034 fcbc 2aa0 bd3c 5b02 783d
000000b0: eb5d fcba fd6b 153d 7f9e 1b3b 7775 293c
000000c0: a40f 963c e435 f1bc 8742 75bc a2e3 34bc
000000d0: 58b4 683b dbd9 9e3b 9c9d 4e3d 5e65 893c
000000e0: b498 9c3d 710c c6bc 16c5 783d 4d43 a73d
000000f0: aa07 29bd ba6b 33bd a9a9 823d c817 e4bb
00000100: 32e0 283d 2ded ff3c 6767 dc3c 46bf 0b3d
00000110: 2893 923d a62e 993d c9ef 703c 3b1d 45bc
00000120: cf6d f4b9 af7c 9cbc 24cd b6bc 8cff 273d
00000130: b696 e53b 8cde 1bbd 18c1 e3bc 89ca efbb
00000140: 5b59 0dba 0812 e03c f2c7 2a3d ca9b fd3c
00000150: 4a20 19bd 1b2d 2e3d 3e02 13bd ef23 a1bb
00000160: e900 febc 3035 d63c 913d 7c3d 7b13 c3bc
00000170: d6d3 44bd 37b7 c6bc 5e11 823b 983c e73b
00000180: 3c96 db3c e90f 8f3c f2d4 13bd 1349 173b
00000190: 204d 4dbd 49b6 f23b d82d 983c 1a36 32bc
000001a0: ed1f 553c f9c1 ffbc c9ca b33c 2bb9 6cbc
000001b0: a522 81bc 6bd8 2cbd 6220 b13c 5e01 013c
000001c0: 9b13 74bc c7d1 cebb c064 4b3d 1012 0fbd
000001d0: 1b9d 74bd 7cd8 22bb b08a 62bd c75e 81bb
000001e0: 0c72 023d 619c 813b 4bdf 243d ea0c 0b3d
000001f0: fc64 063d f78c 9bba 078f 4b3d e8ac 6b3c
00000200: 7234 32bd 9d3d 4d3b 1d36 163d c976 4cbd
00000210: 760e 0f3c bca8 473d 622d ccbb 178c 96bc
00000220: 8ed1 323d f95a 1ebd f775 0dbd d146 963b
00000230: c248 843c a635 17bd 696c 37bd bced ca3b
00000240: 531f 9fbc 1947 173c 59f9 52bd e37c 54bd
00000250: 4782 3abc b12b 9a3c a664 863b 6f34 333d
00000260: d451 343d a0fe 5fbd a46e 62bc 3cc2 b0bb
00000270: d0f2 a6bc 1ed6 083c 137c 0b3d 66b3 3dbc
00000280: 5359 203d 0233 c1bc 64e0 babc 5122 e5bc
00000290: 3da6 1abd 312a 743d a119 cb3c d742 eabc
000002a0: 40ff 593d bfd1 8a3d 2b4f 343d d0a6 e93c
000002b0: d489 f63c 968d e8bc 71d9 573c df0a ec3b
000002c0: fc27 93bb c2b6 323d 165a 1bbd ceea 923a
000002d0: ed01 1f3d 6de7 85bd e182 d33c 45cf b9bb
000002e0: 5cb5 c53c 2ed7 10bd facc 9abc 5a7d 54bc
000002f0: 004b 36bd f7d0 813d 957b 9ebb 3717 a23c
00000300: 71ca 5dbc cc28 aabb 27eb cbbc 19b4 ddbb
00000310: ee5d c4bc c7fb f63c fb4d 42bd 1d0e 17bd
00000320: 5b83 7abc 69cb 433c 22b2 abbc d415 27bb
00000330: 91ee 6ebc 108d cebc c199 603c 72b8 283d
00000340: 4a7b 1f3d 3c03 363d 83fe 703c e8db 013d
00000350: cf94 1abd 69f9 e03b 4339 f03c 650e 9b3c
00000360: eded 633c a72e ddbc 69b4 e93c 0e1c 5bbc
00000370: 3da6 8abd db7a 2fbd f7d1 333c 94b3 f8bc
00000380: 0d87 b5bc e16f 113c 1c85 0fbd 5c47 a33c
00000390: 5dcd 43bd eb95 4b3b 566a 553d 5086 24bd
000003a0: 9cd1 693d 1ea7 403d 47d0 23bd 8618 83bb
000003b0: 45c5 813d 1a82 8e3d 3cfa 29bd 7a33 9c3c
000003c0: f410 25bd 7730 8e3c 3690 e9bc 03b1 6c3c
000003d0: c092 e8bb 5e68 1d3c 3b02 9bbc 7310 6cbc
000003e0: fb89 85bd b1c4 803c ef9c 693c 21d6 30bc
000003f0: 7528 07bd 9ddc 483c 7f6e 4a3d 2aba 273d
0.0022399728 0.058814753 -0.034086294 0.056298394 -0.012421576 -0.048240107 0.023271969 0.107784435
0.06089931 0.01987919 -0.013596883 0.031536072 -0.008899562 -0.05168583 0.023149367 -0.067846626
-0.013058268 -0.03955482 -0.04278034 0.035169046 -0.041409962 0.027627388 -0.050827987 0.045382522
-0.047397234 0.036251113 -0.033990897 -0.03987911 0.024350548 -0.032615606 -0.036940966 -0.050098307
0.058941994 0.015648019 -0.061402548 0.020182109 0.06384051 -0.037156858 -0.033423185 -0.023925511
0.020352488 -0.030786753 0.023147661 0.06054912 -0.0019254064 0.03647994 0.0023745594 0.010342947
0.018318005 -0.029444642 -0.014969475 -0.0110406 0.0035507884 0.0048477477 0.050443277 0.016771968
0.07646313 -0.024175854 0.06073483 0.081671335 -0.041267075 -0.043803908 0.06380016 -0.0069608428
0.041229434 0.031241024 0.026904775 0.03411796 0.07156974 0.074796006 0.014705607 -0.012030895
-0.0004662112 -0.019102423 -0.022314616 0.041015193 0.0070064915 -0.038054034 -0.027802035 -0.0073178452
-0.0005392038 0.027352348 0.04169459 0.030958075 -0.03738431 0.042523485 -0.03589081 -0.0049176137
-0.031006293 0.026148409 0.06158215 -0.023813 -0.048053585 -0.024257286 0.0039693555 0.007056784
0.026805036 0.017463641 -0.036091752 0.0023084327 -0.05012238 0.007406984 0.018576548 -0.010877157
0.0130081 -0.031220423 0.021947281 -0.014448444 -0.01576359 -0.04219858 0.021621887 0.007873861
-0.014897252 -0.0063116285 0.04965663 -0.034929335 -0.05972014 -0.0024848273 -0.055308044 -0.003948066
0.031847045 0.0039554094 0.04025201 0.033947863 0.03281115 -0.0011867572 0.04969695 0.014384486
-0.043507047 0.0031317242 0.0366727 -0.04991797 0.008731475 0.048744902 -0.006230996 -0.018377347
0.04365688 -0.038660977 -0.03453633 0.0045860787 0.016147975 -0.036916398 -0.044781122 0.006192891
-0.019424116 0.00923326 -0.051507328 -0.051876914 -0.0113836 0.018819662 0.0041013537 0.043751176
0.04402335 -0.05468619 -0.013820324 -0.0053942483 -0.020379454 0.008351831 0.034053873 -0.011578416
0.039147686 -0.023583893 -0.022812076 -0.027970465 -0.037756193 0.05961055 0.024792494 -0.028596325
0.05322194 0.06778287 0.044020813 0.028521925 0.030095018 -0.028387826 0.013174401 0.0072034444
-0.0044908505 0.043631323 -0.03792771 0.0011208893 0.038820196 -0.065382816 0.025819244 -0.0056704604
0.02413433 -0.03536146 -0.018896569 -0.012969339 -0.04450512 0.06338685 -0.0048365095 0.01978646
-0.013537035 -0.0051928516 -0.024892403 -0.006765854 -0.02397057 0.030149354 -0.04743765 -0.036878694
-0.015290107 0.011950352 -0.020958964 -0.0025495188 -0.014583246 -0.025213748 0.013708533 0.041191526
0.038935937 0.04443668 0.014709118 0.03170386 -0.03773957 0.0068656695 0.02932418 0.018927762
0.013911706 -0.026999785 0.02852841 -0.013373388 -0.06769989 -0.042841773 0.0109753525 -0.030359067
-0.022159124 0.008876772 -0.035039052 0.019931488 -0.04780327 0.00310647 0.052103363 -0.040167153
0.057084665 0.047034375 -0.03999355 -0.004000726 0.06336454 0.06958409 -0.041498408 0.019067515
-0.04029937 0.017357094 -0.028511148 0.0144465 -0.007097572 0.009607403 -0.018921962 -0.014408219
-0.06520458 0.01571879 0.014258607 -0.01079324 -0.032997567 0.01225963 0.049421784 0.040949024

fc1.bias f4 [50]
00000000: ae82 1a3d 4769 713d c833 0c3d 8b7b 11bc
00000010: 85be 283d f19a a83c 4af0 003d 7fcb b63b
00000020: 76d8 183d 19b8 9e3c 32a1 1bbc ab19 333d
00000030: 5cc5 f03c 0095 fb3b f7c0 253c daae 5abd
00000040: 0cd3 64bc d14f 24bd 35c6 ab3c 1c58 c1bb
00000050: d959 b8bc ea99 b53b cb3f b53b 4e7e 873c
00000060: e147 a4bc ca5f 6b3b 732c 543d be11 b7bc
00000070: f8d2 2c3d 0d66 a83c 3fd4 8c3b 365f 173d
00000080: d7f9 3ebd 72cc 373d 5388 843c 3720 7f3d
00000090: 9218 213d caac 41bc 853b c9bc bc3f f2bc
000000a0: ccab f2bc 3011 c5bc e5a0 02bd 07df 223d
000000b0: 7556 6abd 59c7 65bc 788f 133d ed6a 5fbd
000000c0: 6224 2c3d 7dc9 58bd
0.037722282 0.05893829 0.03422907 -0.008879553 0.04119732 0.020581694 0.031479158 0.005578458
0.03731581 0.019374894 -0.009498881 0.04372565 0.029390983 0.0076776743 0.010116807 -0.053389408
-0.013966333 -0.04011518 0.020968536 -0.005900396 -0.02250378 0.0055420296 0.0055312864 0.016539719
-0.020053806 0.003591525 0.051800203 -0.022347327 0.042193383 0.020556474 0.0042977626 0.036956035
-0.046624985 0.04487271 0.016178286 0.06228658 0.039330073 -0.011820981 -0.024564514 -0.029571407
-0.029622935 -0.024056047 -0.031891722 0.039763477 -0.057211358 -0.014024579 0.036025494 -0.05454533
0.042026885 -0.05292653

fc2.weight f4 [10, 50]
00000000: 65bc 0a3e 3cbf 06bd 8bde 213d be4e dd3d
00000010: 49e0 cebd 56d1 3dbe 3365 9c3c 8be8 09be
00000020: 427f 813d df87 303e 7909 8e3d 5258 fbbd
00000030: f6b9 4b3e 1f1a da3c 1a16 4bbe b4f5 93bc
00000040: 6b21 8a3d cf78 8a3c b6ff dcbd 19b1 b93c
00000050: d541 e1bc f90c 8c3b 8af8 95bd 7be7 91bd
00000060: 7384 1e3e aba5 b13d 44d8 d0bc 0b31 abbd
00000070: d9ab 893d 420b dd3d 1e7b a33d 1e4d 0ebd
00000080: 436b 933d cffa fe3c c284 09be cd52 5c3e
00000090: 5892 91bd 5052 92bd 72cb fc3d 4946 fa3d
000000a0: e63a 933d 6ddd 983d 511e 97bd c7d4 10be
000000b0: c777 f9bd 49d7 153d c5af 5ebe b003 313d
000000c0: e4f0 8c3d 1cc8 243e e952 62be b64e d3bd
000000d0: 0893 003e 1111 e93d 169e 923d 0d45 523e
000000e0: d997 eb3d 44c9 acbd bbd0 803b fdc8 31be
000000f0: 763d 3abe 2755 bdbc d2e4 69bd 16b2 d93d
00000100: 776e 3e3e 3350 92bc c2a6 0c3e 8ce7 48bd
00000110: bf7e d23b 9fde a5bd 0214 c2bc 2353 e43d
00000120: 3475 dcbd e73b 0e3e 20ea 69bd 0a86 81bd
00000130: 580c 16be 2762 2cbc ba90 103e e322 c73b
00000140: 6a87 e3bd 89e8 213e 3720 2e3d 68b2 e73b
00000150: 550f 82bd 49ae e3bc 582b a5bd 0783 eabc
00000160: 3d32 bebd 6651 7a3c fd08 febd 79c4 26be
00000170: 846c 3e3e a371 1e3d a9d7 85bd 845e 5b3e
00000180: 8fd7 343d 8705 243d 000e 553b e917 f13c
00000190: faae 5b3c e5d7 51be 7e5f 2f3d 61eb 043e
000001a0: 3c2c 143e bb33 093e 7caa 533d 8659 013e
000001b0: 9483 863d 097c 8f3d 522a 003c ec93 94bc
000001c0: 5fd8 eebd 2bb0 c23d 0659 bd3c a250 e73d
000001d0: 6285 6bbc c715 c1bd 4d92 02bd cd59 bb3d
000001e0: 0a09 6dbd ec21 cb3d 56b9 11be b47e fa3d
000001f0: 7836 423d a110 283d 1c8d 823d 3333 1e3e
00000200: ebeb d8bd cf4d 0d3e 0843 a33d c65d 4ebd
00000210: 95d5 bc3d 3a20 c93d 4eac 2bbe aec5 d4bb
00000220: c3d7 943c ce45 ad3c 3a6c 84bd 7ec1 a6bd
00000230: ad42 31bd cb7f b3bd ab0d d23c 1e12 2cbe
00000240: 4a99 ccbd 611c 523d 6e6c 063e 5d63 593c
00000250: c0e7 e33c 9601 15be 9911 b4bd 5b60 513e
00000260: f5a5 a8bd ce82 c1bd c20f b63d a5c4 01be
00000270: 5c23 e13d 5ac9 063c 3eff ea3c ebff 0a3e
00000280: 7625 00bd 2510 f3bd 8789 41bd de5b fb3d
00000290: 7919 d83d f7ca 71bc 0dbe 4ebc aa44 003d
000002a0: 490e 32bd 9aa7 afbc 558b 813d 6b84 7e3d
000002b0: 90d3 f23c a835 9cbd 7a75 303e 2a7b 3e3d
000002c0: 458f 9abc 7966 8cbd a8e6 9e3c 7042 24bc
000002d0: 5187 303e e0fc b0bd 9819 c4bc 626e 043c
000002e0: 087a b3bc 5fbc 45bd d1ed fdbd 1dce 6fbd
000002f0: 6a23 adbc f0d3 94bd 3091 943d d82a 743c
00000300: f91b eebd e9bb cbbd 7670 9d3d c99c 9cbd
00000310: 91d2 093e dd83 ee3d b26d 35bd 84dd 09be
00000320: eb39 a53d cd1f 323d b164 2c3d d72d 163c
00000330: 71e2 96bd 9223 0bbe 69cd 1f3d d84c a1bd
00000340: adae f3bd 69bf 3cbe 758b c4bd df60 d53b
00000350: de5a 7b3d cd4d bebd b3cc f83c e35d 073d
00000360: 6ca2 a03d 7ee9 0cbe 302d 703d 7313 a3bc
00000370: a35a 8ebd 230d 00be ba08 e93d 9e07 c13d
00000380: 4374 10be 71b9 0f3e 4027 8bbd 352e 913d
00000390: 2154 ce3c 6d8d febb f0f2 e53c 6af8 9fbd
000003a0: 2f0f 88bd 25f0 47bd 64e1 ff3c 965e 75bd
000003b0: 440d 193e 5bc7 9fbd 72f6 a0bb 4450 083e
000003c0: 9fae ac3d e14c ca3d 728c 21bc be00 093e
000003d0: 399f 97bd b63f a03d 3940 033e fe22 b5bd
000003e0: 8cba b7bc 0be6 e13d 29d4 6cbd 4133 3d3e
000003f0: ddb5 c0bd e877 f0bd a6dc 09be 5d8b 913d
0.1354843 -0.03289722 0.039518874 0.108060345 -0.10101373 -0.18536887 0.019091224 -0.13467614
0.063231006 0.1723933 0.069354005 -0.12272705 0.19895157 0.026623784 -0.1983265 -0.018061496
0.06744655 0.01690331 -0.107909605 0.022667455 -0.027497211 0.0042740074 -0.07322796 -0.071242295
0.15480213 0.08674177 -0.025493748 -0.083589636 0.067222305 0.10793163 0.07982467 -0.034741513
0.07198193 0.031125454 -0.1342955 0.21515961 -0.07107991 -0.07144606 0.123434916 0.12220437
0.07188968 0.074641086 -0.07378829 -0.14143668 -0.12181049 0.036582265 -0.21746738 0.043216407
0.06881884 0.1609196 -0.2210194 -0.10317747 0.12556088 0.11380208 0.07159059 0.20534153
0.11503572 -0.08436826 0.0039311326 -0.17361827 -0.18187508 -0.023111893 -0.057102986 0.1062967
0.18596826 -0.017860508 0.13735488 -0.049048945 0.0064238007 -0.08099102 -0.023691181 0.111486696
-0.10764542 0.13890038 -0.057108045 -0.06324394 -0.14653146 -0.010521448 0.14117709 0.006077157
-0.111098126 0.15811361 0.04251119 0.007070828 -0.063505806 -0.027793067 -0.08064908 -0.028626932
-0.09286926 0.015278196 -0.12404058 -0.16285886 0.18596083 0.03868259 -0.065352745 0.21422774
0.044150885 0.040044334 0.0032509565 0.029430347 0.013408417 -0.20492513 0.042815678 0.12980415
0.14469999 0.1339864 0.05167626 0.12631807 0.06568065 0.0700608 0.00782259 -0.01813694
-0.11662363 0.095062576 0.023113739 0.11294676 -0.014375063 -0.09427982 -0.031877805 0.091479875
-0.05786995 0.099185795 -0.14230856 0.12231198 0.047415227 0.041031484 0.06374571 0.15449218
-0.10591873 0.13799213 0.079717696 -0.050382398 0.09220425 0.098206 -0.16764948 -0.006493292
0.01816929 0.02115145 -0.06465955 -0.081423745 -0.043276478 -0.08764609 0.025641283 -0.16803786
-0.09990175 0.051296595 0.131273 0.013268319 0.027820468 -0.14551386 -0.08792419 0.20446913
-0.08234779 -0.09448777 0.08889724 -0.1267267 0.109930724 0.008226717 0.028686162 0.13574187
-0.031285726 -0.11868314 -0.047250297 0.12273382 0.105517335 -0.014757863 -0.012618554 0.031315483
-0.043470655 -0.021442223 0.063254036 0.062138002 0.029641896 -0.076274216 0.17232314 0.046504177
-0.018867144 -0.068554826 0.019397095 -0.010025606 0.17239119 -0.08641982 -0.023937985 0.008082958
-0.021908775 -0.048275348 -0.123988755 -0.058546174 -0.02113505 -0.07266986 0.07254255 0.014902793
-0.11626429 -0.099479504 0.07687466 -0.07647092 0.13459231 0.11646245 -0.044294067 -0.13463408
0.080676876 0.04348736 0.042088214 0.0091662025 -0.07367409 -0.13587788 0.039014254 -0.07875985
-0.11898551 -0.18432392 -0.09596912 0.006511792 0.061365955 -0.09292183 0.030371046 0.03304852
0.078434795 -0.13760945 0.058636844 -0.019906735 -0.06950881 -0.12505011 0.113786176 0.09425281
-0.1410685 0.14035584 -0.06794596 0.070888914 0.0251866 -0.007768324 0.028069943 -0.07811053
-0.06643521 -0.048813004 0.031235404 -0.059904657 0.14946467 -0.07801696 -0.004912191 0.13311869
0.08431744 0.09877945 -0.009860145 0.1337919 -0.07403416 0.07824652 0.12817468 -0.08844565
-0.02242782 0.11030205 -0.05781952 0.18476583 -0.09409688 -0.1174162 -0.13463077 0.071066596

fc2.bias f4 [10]
00000000: 700f 65bd 84a6 653c f5d7 ad3d f5b9 933d
00000010: 82f2 943c 4e24 bc3d 5505 513b 3deb 62bc
00000020: a6cc e23d 6f31 83bc
-0.055922925 0.014016751 0.08488456 0.07213203 0.018182043 0.09186612 0.0031894047 -0.0138500305
0.1107419 -0.016014783
