Project5_Recognition_using_Deep_Networks/DeepNetwork.pth (torch, 90416 bytes, 8 tensors)

conv1.weight f4 [10, 1, 5, 5]
-0.15978335 -0.21972202 0.026811505 0.26112545 0.11101065 0.07619624 -0.17577377 0.003933748
0.18500246 0.0032704284 0.12432102 -0.05575672 0.24606335 0.12129432 0.09211087 -0.16717151
-0.06931736 0.017067185 0.118229665 0.11581718 -0.032861933 0.003172657 0.22374663 -0.08794268
0.056898043 -0.2869466 0.080645844 -0.08649678 0.040364955 0.2619772 -0.17766342 -0.25041682
0.19796048 0.03637915 0.15971208 -0.15666331 0.024548162 0.17174144 0.04307258 0.2515811
-0.18332781 -0.017483301 0.11703775 0.26167384 0.13350911 -0.057050567 0.06599398 0.095965244
-0.0009914201 0.010584038 0.12799926 -0.00482083 -0.11983215 -0.041232135 -0.15004133 0.12701336
0.0650339 -0.0058887205 -0.2256329 0.031156883 0.092970595 0.06453625 -0.10533527 0.09279872
-0.23097451 -0.03760774 -0.19060577 0.09476658 -0.10923322 -0.1799972 -0.0032842967 0.16271615
-0.13324386 0.0013179427 -0.07723683 -0.07196668 -0.14674085 0.008628103 0.20592809 0.014115625
0.11813209 -0.1671319 -0.13328762 -0.048880205 0.022118371 0.09601374 0.03950325 0.10687319
0.14516215 -0.10201701 0.07753824 -0.19797358 -0.051372558 0.13033956 -0.10574351 -0.0013173304
0.11061424 0.08538937 -0.12697667 -0.14109793 0.19766104 0.17044501 0.21328776 0.2371958
0.22904554 -0.19052991 -0.040673714 0.18510723 -0.12065448 -0.03124337 -0.23046249 0.013504604
0.14848258 0.25653037 0.25546673 0.10603598 -0.06610952 0.21947014 0.26158217 0.20660067
-0.026436048 -0.07948991 -0.043772455 0.117410935 -0.08194532 0.009543121 0.12498399 -0.0086889835
0.17797875 0.23641448 -0.26393247 0.09154396 0.13856672 0.16974108 0.25228432 0.15316042
0.019364236 0.03312948 0.1509678 0.2122749 -0.17395397 -0.017806984 0.28182304 0.23378819
-0.02980253 0.18643379 0.05540077 0.019331716 0.14497545 -0.09077886 0.23858744 -0.13131608
0.003772516 -0.06062369 0.12417385 0.17051665 -0.053836174 -0.091760345 0.0004836804 -0.072960705
-0.04352665 0.10222881 0.14216678 0.06716876 -0.2024982 -0.09176933 0.034704868 -0.22928931
-0.19833857 -0.019996848 -0.033462662 -0.22245154 -0.20238383 -0.23227136 -0.20251423 0.07711653
0.22602555 0.12989604 -0.019289374 0.18763891 0.07091217 0.050409995 0.1987756 0.23618643
0.06913048 0.092594095 -0.21357374 -0.12682721 -0.17109813 0.039284173 0.048313133 -0.26102534
0.079410456 -0.14481997 0.16322571 0.028538927 -0.047547244 -0.18466318 -0.028128045 0.07093595
-0.09098351 -0.076954156 -0.1990876 -0.2034215 -0.01938911 -0.16601954 -0.2579469 -0.17046547
-0.16250224 0.0020992584 -0.053474836 -0.058587678 0.07517951 -0.10959994 -0.065689206 -0.19225435
-0.21577775 0.13508768 0.1644841 -0.15782963 0.1254071 0.22041847 -0.05137995 0.20307277
-0.11801087 0.048425052 0.13003173 0.021605555 -0.0070016524 0.17465924 -0.14616676 0.17136642
0.16826558 -0.114877 0.15345569 0.09814513 -0.036358327 0.012574753 0.19896756 -0.18747261
0.20499517 0.085512206 -0.043339603 -0.05355683 -0.108705565 0.13586347 0.0009927319 0.17819037
0.104608834 0.11252603
00000000: 3f9e 23be cffe 60be cda3 db3c 3cb2 853e
00000010: 8d59 e33d c60c 9c3d 0afe 33be ace6 803b
00000020: 4971 3d3e af54 563b 059c fe3d 2961 64bd
00000030: 08f8 7b3e 2869 f83d a0a4 bc3d 022f 2bbe
00000040: 43f6 8dbd 7bd0 8b3c 6522 f23d 8f31 ed3d
00000050: 3c9a 06bd 5aec 4f3b d61d 653e 4b1b b4bd
00000060: ec0d 693d aaea 92be a629 a53d 3925 b1bd
00000070: b955 253d e021 863e 66ed 35be a236 80be
00000080: 27b6 4a3e 4e02 153d 908b 233e 596c 20be
00000090: 3a19 c93c fddc 2f3e e06c 303d 3dcf 803e
000000a0: 49ba 3bbe 2439 8fbc 7db1 ef3d 1dfa 853e
000000b0: 9db6 083e dbad 69bd da27 873d 6d89 c43d
000000c0: 8af2 81ba ac68 2d3c 3d12 033e 0ef8 9dbb
000000d0: 8f6a f5bd 07e3 28bd 6fa4 19be ca0f 023e
000000e0: 7e30 853d 2bf6 c0bb 500c 67be b83c ff3c
000000f0: 5e67 be3d 952b 843d 05ba d7bd 410d be3d
00000100: 9584 6cbe 930a 1abd 292e 43be fb14 c23d
00000110: abb5 dfbd 3051 38be 5b3d 57bb 109f 263e
00000120: 1471 08be d2be ac3a 582e 9ebd 4463 93bd
00000130: 3c43 16be e35c 0d3c d0de 523e 3945 673c
00000140: 3def f13d a024 2bbe 8d7c 08be 9c36 48bd
00000150: 9631 b53c daa2 c43d 29ce 213d 55e0 da3d
00000160: 63a5 143e 4bee d0bd 5ecc 9e3d 96b9 4abe
00000170: 086c 52bd bc77 053e 0e90 d8bd 46aa acba
00000180: b889 e23d 9fe0 ae3d 2c06 02be fa7b 10be
00000190: a867 4a3e 2389 2e3e 1b68 5a3e 75e3 723e
000001a0: ea8a 6a3e 461a 43be 7b99 26bd c08c 3d3e
000001b0: b219 f7bd 19f2 ffbc 5cfe 6bbe 6a42 5d3c
000001c0: d10b 183e f357 833e 89cc 823e 6429 d93d
000001d0: 6e64 87bd c8bc 603e 19ee 853e 208f 533e
000001e0: 6990 d8bc 9bcb a2bd bf4a 33bd 2575 f03d
000001f0: f3d2 a7bd c05a 1c3c 9bf7 ff3d 3d5c 0ebc
00000200: 1040 363e a316 723e 2822 87be 667b bb3d
00000210: 6fe4 0d3e 9bd0 2d3e 692b 813e 16d6 1c3e
00000220: bfa1 9e3c c7b2 073d 4e97 1a3e 975e 593e
00000230: fd20 32be f4df 91bc 1c4b 903e 2c66 6f3e
00000240: 6f24 f4bc 80e8 3e3e ebeb 623d 8c5d 9e3c
00000250: 7274 143e 44ea b9bd 4450 743e b977 06be
00000260: 513c 773b 8c50 78bd dc4e fe3d eb9b 2e3e
00000270: 5283 5cbd d9ec bbbd 7c96 fd39 6c6c 95bd
00000280: 0049 32bd 575d d13d 2b94 113e c68f 893d
00000290: b05b 4fbe 8ff1 bbbd b126 0e3d d1ca 6abe
000002a0: 4419 4bbe 6ed0 a3bc 2510 09bd 56ca 63be
000002b0: b53d 4fbe 8bd8 6dbe e45f 4fbe 45ef 9d3d
000002c0: 3e73 673e 7803 053e c004 9ebc 6a24 403e
000002d0: 663a 913d b67a 4e3d d58b 4b3e dbda 713e
000002e0: 4894 8d3d f9a1 bd3d 13b3 5abe fede 01be
000002f0: 5934 2fbe 71e8 203d fee3 453d 1da5 85be
00000300: f3a1 a23d b04b 14be a424 273e 78ca e93c
00000310: e6c0 42bd 5818 3dbe c96c e6bc de46 913d
00000320: 9055 babd 249a 9dbd 9fdd 4bbe ba4d 50be
00000330: e9d5 9ebc 0701 2abe 9e11 84be 808e 2ebe
00000340: fd66 26be b693 093b 6e08 5bbd a2f9 6fbd
00000350: b7f7 993d ef75 e0bd 1088 86bd 53de 44be
00000360: d8f4 5cbe 6d54 0a3e 856e 283e 179e 21be
00000370: b86a 003e 61b5 613e c873 52bd 4ff2 4f3e
00000380: afaf f1bd 5959 463d 0a27 053e 22fe b03c
00000390: 1e6e e5bb dfd9 323e bdac 15be ae7a 2f3e
000003a0: d04d 2c3e a244 ebbd 7d23 1d3e 5000 c93d
000003b0: 78ec 14bd 5606 4e3c 27be 4b3e d2f8 3fbe
000003c0: 41ea 513e 0621 af3d de84 31bd 685e 5bbd
000003d0: 06a1 debd cb1f 0b3e 8e1e 823a 8977 363e
000003e0: 283d d63d 0c74 e63d

conv1.bias f4 [10]
0.23640364 0.03345346 0.11332606 -0.1340744 -0.03935405 0.24776863 0.046600968 0.05617737
0.15392388 0.031706966
00000000: cc13 723e 7f06 093d 7e17 e83d cd4a 09be
00000010: b631 21bd 0fb7 7d3e a8e0 3e3d 3e1a 663d
00000020: 399e 1d3e 2adf 013d

conv2.weight f4 [20, 10, 5, 5]
0.012016789 -0.050032716 0.03322092 0.01803255 0.029158542 0.005984314 -0.030974975 0.042299096
-0.023352586 -0.019867284 -0.015144517 0.048627198 -0.052947927 -0.043122172 0.014448882 0.000768899
0.041512623 -0.0035787933 -0.03757549 0.0027177834 0.035040822 -0.05061702 0.04984588 -0.051811922
-0.03393308 -0.0005204309 -0.016589304 -0.03410822 0.033954218 0.038883425 -0.055671345 0.029744765
-0.029722076 0.021240905 0.03276168 0.028626107 -0.005264159 -0.05612273 0.061619617 -0.019754123
0.052242585 0.04949833 -0.02669535 -0.017042553 0.053584766 -0.019470068 0.017857427 -0.04773899
-0.0009674219 -0.0006898973 -0.05989871 -0.008810398 -0.018973943 0.057371616 -0.035914015 -0.009333994
-0.03318477 0.016727347 0.043925896 0.05299308 0.04086216 -0.019214243 -0.030996649 0.014836766
-0.0482497 0.021750385 0.03659824 -0.026791915 0.047841776 -0.06271305 0.040744998 0.014248424
0.034102548 0.046542622 0.023634028 -0.03303749 0.041040793 0.04697784 -0.0020467357 0.047720186
-0.040725935 0.039144423 -0.015290505 -0.034532245 -0.01723512 -0.027663516 0.06301797 -0.043535184
0.0153631 0.037801977 0.02773913 0.009244172 -0.05616386 0.046551026 0.020696014 -0.04376134
-0.03910405 0.025658738 -0.014424539 -0.062229265 0.021268053 -0.050186757 -0.014127256 0.060126867
-0.03389766 0.04701403 -0.049302988 -0.060320057 0.043989684 0.00903687 0.0018540148 -0.04728422
0.04442693 0.040484577 -0.033859193 0.0052515347 -0.013252673 0.048844237 0.06302485 0.021682682
-0.047356807 0.0036014025 0.06629327 0.010409937 0.03204019 0.01451861 -0.024328534 0.0084902635
-0.046536658 -0.020960953 0.015990341 0.025401378 -0.040238865 -0.011126594 -0.0071887504 -0.036388084
-0.02125883 0.059753336 0.02695534 -0.031218696 0.06219153 0.062360447 0.0011099408 0.0020616478
0.068249345 -0.023477789 0.049251016 0.045191914 0.024649406 0.012168862 -0.037441246 0.015639404
-0.035936665 0.031713992 -0.024928838 -0.026729174 0.045899637 -0.03017487 0.018831616 -0.04085146
0.0031609533 0.020449901 -0.032653302 -0.049188916 -0.043528523 -0.008507016 -0.02919651 -0.040082153
-0.026350038 -0.043642867 -0.06205235 -0.04429617 -0.01758756 0.05549478 -0.011604116 0.018149445
0.008253596 -0.0448394 0.051482823 -0.056654885 -0.050852235 -0.0125182625 -0.009166824 0.025473805
-0.002369317 0.01275277 0.049210336 -0.05490403 0.027556228 -0.050110403 0.046426687 -0.053902823
-0.0015953584 0.020000603 -0.049993478 0.0014421919 -0.026458656 -0.054745 0.029705651 0.023824032
-0.05675409 -0.01950838 0.018178307 -0.058023527 0.048617084 0.0012124359 -0.039776832 0.04408056
0.031979956 -0.0029194618 -0.038310565 -0.018752499 0.044219933 0.05562055 0.021825835 -0.035677813
-0.05630359 0.040391862 0.034403164 -0.03420066 -0.047244772 -0.050066978 -0.04781123 -0.024890877
0.053400513 -0.050734997 -0.0028476317 -0.021211138 0.004342012 0.016742593 0.009548638 0.012027007
-0.0003437394 0.0058375346 -0.040461227 0.026532033 -0.045814753 -0.017524542 0.0034380392 -0.0072310274
-0.006259981 0.04133779 -0.052913506 0.0071726115 0.049889654 -0.057869736 0.04275063 -0.058916204
-0.0544448 0.062048577 -0.0037810893 0.019693429 -0.034285 -0.01046678 -0.034394257 -0.044483107
00000000: 11e2 443c 1bef 4cbd a912 083d 00b9 933c
00000010: e5dd ee3c 1018 c43b 3bbf fdbc d141 2d3d
00000020: ec4d bfbc b7c0 a2bc b520 78bc 502d 473d
00000030: eddf 58bd e0a0 30bd 01bb 6c3c f08f 493a
00000040: 2409 2a3d 308a 6abb c2e8 19bd d71c 323b
00000050: f786 0f3d cb53 4fbd 322b 4c3d bd38 54bd
00000060: 6afd 0abd 876d 08ba 4be6 87bc 10b5 0bbd
00000070: 9413 0b3d 3a44 1f3d a307 64bd 4bab f33c
00000080: b67b f3bc 6801 ae3c 1d31 063d 4c81 ea3c
00000090: f77e acbb f3e0 65bd da64 7c3d 66d3 a1bc
000000a0: 52fc 553d c3be 4a3d 35b0 dabc d39c 8bbc
000000b0: b37b 5b3d b17f 9fbc bd49 923c f689 43bd
000000c0: 969a 7dba 39da 34ba 5a58 75bd 7d59 10bc
000000d0: 3e6f 9bbc 80fe 6a3d 931a 13bd 9ced 18bc
000000e0: c1ec 07bd ca07 893c a4eb 333d 460f 593d
000000f0: 155f 273d 3067 9dbc afec fdbc e815 733c
00000100: 7aa1 45bd dd2d b23c 09e8 153d b87a dbbc
00000110: bdf5 433d b36f 80bd 3ae4 263d 3972 693c
00000120: 1daf 0b3d 7aa3 3e3d 269c c13c 5252 07bd
00000130: 641a 283d d66b 403d 8722 06bb 3e76 433d
00000140: 3dd0 26bd e755 203d 0785 7abc af71 0dbd
00000150: ab30 8dbc 999e e2bc 910f 813d f351 32bd
00000160: 83b5 7b3c 3fd6 1a3d 2c3d e33c de74 173c
00000170: 130c 66bd 4aac 3e3d b08a a93c 173f 33bd
00000180: 912b 20bd 4632 d23c e754 6cbc 1de4 7ebd
00000190: 573a ae3c a190 4dbd 0276 67bc 9747 763d
000001a0: 46d8 0abd c991 403d eef1 49bd 2a12 77bd
000001b0: 872e 343d 610f 143c 6a02 f33a 19ad 41bd
000001c0: 03f9 353d 28d3 253d f0af 0abd 1115 ac3b
000001d0: bd21 59bc e510 483d 2c13 813d e19f b13c
000001e0: 36f9 41bd 8205 6c3b c4c4 873d 718e 2a3c
000001f0: 933c 033d 77df 6d3c a24c c7bc bf1a 0b3c
00000200: 399d 3ebd 4eb6 abbc 2dfe 823c 8d16 d03c
00000210: 82d1 24bd 514c 36bc 9c8f ebbb ac0b 15bd
00000220: ff26 aebc eabf 743d 72d1 dc3c 5abe ffbc
00000230: 8cbc 7e3d ab6d 7f3d 6f7b 913a b61c 073b
00000240: 50c6 8b3d 7e54 c0bc 6fbb 493d 281b 393d
00000250: 8ded c93c e85f 473c fe5b 19bd 351e 803c
00000260: 5332 13bd 88e6 013d 9037 ccbc 24f7 dabc
00000270: 4201 3c3d 4a31 f7bc c344 9a3c dc53 27bd
00000280: ff27 4f3b 8d86 a73c 78bf 05bd 517a 49bd
00000290: f74a 32bd 0361 0bbc 852d efbc 2f2d 24bd
000002a0: 09dc d7bc ddc2 32bd 9b2a 7ebd e76f 35bd
000002b0: c913 90bc 7f4e 633d 311f 3ebc 25ae 943c
000002c0: 173a 073c 85a9 37bd a7df 523d f40e 68bd
000002d0: 6f4a 50bd 6619 4dbc 7230 16bc 71ae d03c
000002e0: 8b46 1bbb fff0 503c c790 493d 0ce3 60bd
000002f0: 99bd e13c 9140 4dbd e929 3e3d 35c9 5cbd
00000300: 581b d1ba 4ed8 a33c f6c5 4cbd ee07 bd3a
00000310: d3bf d8bc 4b3c 60bd 4459 f33c 9e2a c33c
00000320: fa76 68bd 0ad0 9fbc acea 943c 14aa 6dbd
00000330: b522 473d 99ea 9e3a 08ed 22bd d18d 343d
00000340: 6afd 023d 7154 3fbb 8aeb 1cbd d79e 99bc
00000350: f61f 353d 60d2 633d 18cc b23c e622 12bd
00000360: 989e 66bd f071 253d 55ea 0c3d fe15 0cbd
00000370: bc83 41bd 0813 4dbd b5d5 43bd f4e7 cbbc
00000380: 7fba 5a3d 80cf 4fbd 559f 3abb fbc2 adbc
00000390: 7047 8e3b c327 893c e471 1c3c ec0c 453c
000003a0: ec37 b4b9 ca48 bf3b acba 25bd b559 d93c
000003b0: 40a8 3bbd a18f 8fbc ba50 613b 41f2 ecbb
000003c0: 8720 cdbb d151 293d d5bb 58bd 3a08 eb3b
000003d0: 1859 4c3d d108 6dbd 491b 2f3d 1e52 71bd
000003e0: 8301 5fbd a626 7e3d 27cc 77bb 1d54 a13c
000003f0: 6e6e 0cbd db7c 2bbc fee0 0cbd eb33 36bd

conv2.bias f4 [20]
-0.06068832 -0.026212372 -0.046809945 0.05697762 -0.0021126792 0.07548829 0.050383992 -0.050293703
0.019907143 0.035880934 -0.020955639 0.026153188 0.004481912 -0.0467974 0.011521798 0.060178753
0.0061299605 0.06722071 0.026291331 0.01604292
00000000: 5194 78bd 54bb d6bc c9bb 3fbd 5d61 693d
00000010: e074 0abb 9b99 9a3d 725f 4e3d c500 4ebd
00000020: 4e14 a33c e3f7 123d 29ab abbc 363f d63c
00000030: 01dd 923b a1ae 3fbd ecc5 3c3c ff7d 763d
00000040: d6dd c83b 03ab 893d eb60 d73c 716c 833c

fc1.weight f4 [50, 320]
0.020246979 0.0069402866 -0.025254725 0.011632109 -0.0045805206 0.01396084 -0.05275583 0.040412553
0.019425504 0.015328265 0.03276194 0.022911346 0.019155568 0.027385795 0.030500421 -0.025507173
-0.037809674 0.020959513 0.03733829 -0.03461915 -0.05179482 -0.028356688 0.0076474803 -0.045747083
0.000752215 0.023933113 0.042905107 -0.013005657 0.03074458 0.003296302 -0.019431317 -0.046227753
-0.040099133 0.0068775704 0.0336162 -0.052088335 -0.014731355 -0.033125985 -0.012625531 -0.015468013
-0.03962963 -0.025676023 0.04567768 0.037304558 -0.02730618 -0.0027035149 -0.009364782 -0.004156087
-0.01818053 0.012431993 -0.017703597 -0.059300367 0.046132404 -0.008852046 0.030984636 -0.04776798
-0.045320947 0.015138242 -0.007039096 0.046840135 -0.061216243 0.061066113 -0.010106149 0.029068004
-0.04565726 -0.030764682 0.0068282965 0.022509007 0.022353083 -0.038216297 -0.03186135 0.0010781322
0.02837168 -0.007983529 -0.0076077455 -0.020984577 0.02859935 0.058614306 0.001301088 -0.06424387
-0.049115997 -0.0101577435 -0.047912024 0.0014981386 -0.031919677 0.0141069945 -0.016040696 0.01965113
0.039703384 -0.023958225 -0.0042503923 -0.011680002 0.044682387 -0.0009877591 -0.039778866 -0.013206426
0.008544818 -0.014518314 0.017052058 0.02258412 -0.018343922 0.03882373 -0.032933 -0.031024182
-0.022949774 0.010812329 0.060415883 0.06695034 0.006090892 -0.03523433 0.011642694 -0.045949873
-0.0062995222 0.03273549 0.020289587 0.04283548 0.02724435 -0.015605769 0.03393599 0.052949253
0.028502515 -0.030964294 -0.015186887 -0.045288354 -0.025601428 -0.029242069 -0.018330308 -0.0308524
-0.011556766 -0.003775304 -0.023104902 -0.050305262 0.047377583 -0.013863825 -0.016477594 -0.06530694
0.027457824 0.06010341 -0.0010837255 0.033463635 0.058234323 -0.011973332 0.038676094 -0.021607747
-0.03082656 0.0208313 -0.0074040904 0.020525696 -0.024364915 0.0259114 0.05922459 -0.02697959
-0.0061784824 -0.012002485 0.019795472 0.008942559 -0.031849403 0.020046357 -0.014036751 0.021097872
0.023392059 0.03551156 0.024738362 -0.050007347 -0.02293569 0.049830247 -0.005294828 -0.03757948
-0.0194774 0.0058206045 -0.047617618 0.07143626 -0.06663475 -0.089053206 -0.01675721 -0.0067906296
-0.009366766 0.05072682 0.013411399 0.013802969 -0.019872349 0.010556935 0.087036036 0.054388694
0.02411211 -0.008902016 0.0070140683 -0.027788524 0.010775781 0.03903952 0.025324509 -0.059984174
0.047421973 -0.016366487 -0.013646001 -0.0010731072 -0.029882664 -0.012386009 0.009369544 -0.013727342
0.03957483 0.017301865 -0.0498028 -0.00934623 0.03507804 -0.040305365 0.013585542 0.03922649
0.026490757 0.049038965 -0.014875261 0.058719985 0.014350412 0.07152284 0.04015461 -0.01755063
0.0095656095 -0.012565915 -0.03616207 0.010139722 0.008733921 0.033549096 -0.0385261 -0.003799296
0.0631263 -0.040023733 -0.053742897 -0.006272412 0.05589366 -0.020702522 0.01774095 0.0030844044
0.035098605 -0.094989076 -0.00019778841 -9.642485e-05 0.007315758 0.02090823 -0.016379375 -0.020810416
-0.011169147 -0.040535726 0.029293435 -0.0500074 0.006252298 -0.0033733821 0.011410953 0.005087391
-0.043325055 -0.008339846 -0.035665877 0.049919162 0.057036728 0.041798353 -0.05337065 -0.001892338
00000000: fedc a53c 586b e33b ffe2 cebc 9a94 3e3c
00000010: 3118 96bb 02bc 643c 7f16 58bd a287 253d
00000020: 3c22 9f3c 6723 7b3c 6231 063d 93b0 bb3c
00000030: 23ec 9c3c 2d58 e03c 05dc f93c 6bf4 d0bc
00000040: 51de 1abd 49b3 ab3c 09f0 183d cfcc 0dbd
00000050: ce26 54bd 494c e8bc b797 fa3b 4b61 3bbd
00000060: 4b30 453a 600f c43c 44bd 2f3d ae15 55bc
00000070: 0fdc fb3c c506 583b 6d2e 9fbc 5059 3dbd
00000080: fd3e 24bd 3e5d e13b 24b1 093d 945a 55bd
00000090: c85b 71bc 1daf 07bd 51db 4ebc 8c6d 7dbc
000000a0: ae52 22bd 8656 d2bc 8518 3b3d aacc 183d
000000b0: 36b1 dfbc 742d 31bb be6e 19bc c92f 88bb
000000c0: 56ef 94bc 8faf 4b3c 2207 91bc f1e4 72bd
000000d0: 55f5 3c3d 2c08 11bc 7ed3 fd3c 5ba8 43bd
000000e0: 75a2 39bd 6406 783c 38a8 e6bb 71db 3f3d
000000f0: e2bd 7abd 7620 7a3d 4394 25bc 0620 ee3c
00000100: 1b03 3bbd 3706 fcbc e7bf df3b cf64 b83c
00000110: d01d b73c b188 1cbd 0c81 02bd 1d50 8d3a
00000120: ba6b e83c 59cd 02bc 654a f9bb d9e7 abbc
00000130: 2f49 ea3c 8e15 703d 4589 aa3a 4a92 83bd
00000140: db2d 49bd aa6c 26bc 663f 44bd 315d c43a
00000150: 35be 02bd 0621 673c c767 83bc 68fb a03c
00000160: 04a0 223d 0a44 c4bc e046 8bbb 7b5d 3fbc
00000170: e104 373d b277 81ba 2aef 22bd c45f 58bc
00000180: 90ff 0b3c 39de 6dbc c2b0 8b3c 5502 b93c
00000190: fe45 96bc a205 1f3d c1e4 06bd 6d26 febc
000001a0: 2a01 bcbc 3226 313c a576 773d 431d 893d
000001b0: 1b96 c73b df51 10bd ffc0 3e3c ef35 3cbd
000001c0: 396c cebb a615 063d 5936 a63c 4274 2f3d
000001d0: 8b2f df3c 57af 7fbc 7700 0b3d 51e1 583d
000001e0: 1b7e e93c d5a8 fdbc 6cd2 78bc 4880 39bd
000001f0: 16ba d1bc 108d efbc 7129 96bc 2cbe fcbc
00000200: 9758 3dbc 176b 77bb 7e46 bdbc e40c 4ebd
00000210: ff0e 423d 1925 63bc 05fc 86bc a5bf 85bd
00000220: 3bef e03c fe2e 763d cb0b 8eba 2a11 093d
00000230: 1d87 6e3d cb2b 44bc d36a 1e3d bb02 b1bc
00000240: fb87 fcbc 67a6 aa3c 039e f2bb 8125 a83c
00000250: ee98 c7bc 2544 d43c 7c95 723d 4d04 ddbc
00000260: de74 cabb 12a6 44bc 1d2a a23c d083 123c
00000270: 8574 02bd 4238 a43c 67fa 65bc 72d5 ac3c
00000280: b4a0 bf3c 9274 113d 1ba8 ca3c 81d4 4cbd
00000290: a1e3 bbbc cd1a 4c3d 3d80 adbb f1ec 19bd
000002a0: 128f 9fbc c5ba be3b b10a 43bd 2d4d 923d
000002b0: cd77 88bd 8761 b6bd 6b46 89bc ee83 debb
000002c0: 1077 19bc edc6 4f3d 7cbb 5b3c d925 623c
000002d0: 56cb a2bc fff6 2c3c f33f b23d aec6 5e3d
000002e0: c286 c53c c3d9 11bc 45d6 e53b c2a4 e3bc
000002f0: e78c 303c e7e7 1f3d 5875 cf3c f7b1 75bd
00000300: 8b3d 423d 0313 86bc 7a93 5fbc 81a7 8cba
00000310: 7dcc f4bc b0ee 4abc b782 193c a5e8 60bc
00000320: 3819 223d a4bc 8d3c 05fe 4bbd ee20 19bc
00000330: fead 0f3d 3d17 25bd e595 5e3c f5ab 203d
00000340: 2503 d93c 15dd 483d 5eb7 73bc 5e84 703d
00000350: fe1d 6b3c 917a 923d 2979 243d 57c6 8fbc
00000360: 13b9 1c3c 44e1 4dbc ae1e 14bd 1421 263c
00000370: b818 0f3c c76a 093d 8bcd 1dbd 9cfd 78bb
00000380: 5d48 813d edef 23bd 8321 5cbd ce88 cdbb
00000390: c0f0 643d 5698 a9bc 7855 913c b823 4a3b
000003a0: 8ec3 0f3d a289 c2bd 6c65 4fb9 b237 cab8
000003b0: 07b9 ef3b bd47 ab3c 0a2e 86bc 9b7a aabc
000003c0: ccfe 36bc ca08 26bd c9f8 ef3c 8fd4 4cbd
000003d0: 14e0 cc3b f613 5dbb 01f5 3a3c 21b4 a63b
000003e0: 9d75 31bd d9a3 08bc 6216 12bd 0978 4c3d
000003f0: 589f 693d c034 2b3d 2f9b 5abd 5408 f8ba

fc1.bias f4 [50]
0.061931387 0.043109357 0.022973042 0.051674698 0.048747104 -0.04438943 -0.016594129 0.04170072
0.044712406 -0.028894985 0.01796899 0.048045713 0.042919416 0.015933897 0.03359371 -0.030359117
0.008928528 -0.02050075 0.0106605245 0.04270452 0.027178803 0.03535723 -0.028235707 -0.054982238
-0.028360482 0.046341695 0.044498038 0.0601598 0.0011470113 -0.030049013 0.005482748 -0.033747546
0.020698909 -0.0070782807 -0.036728892 0.00040700525 0.035400912 0.00048512997 -0.02277122 0.05705329
0.050230574 -0.02785095 -0.03365702 0.016676148 -0.032350615 0.02619926 0.01654988 -0.05388576
-0.022513302 0.013823975
00000000: c4ab 7d3d 7093 303d f631 bc3c d9a8 533d
00000010: 0bab 473d b1d1 35bd 69f0 87bc 60ce 2a3d
00000020: 5b24 373d 2db5 ecbc b433 933c 95cb 443d
00000030: 45cc 2f3d ce87 823c 8f99 093d afb3 f8bc
00000040: f648 123c 30f1 a7bc 7ba9 2e3c efea 2e3d
00000050: 15a6 de3c bed2 103d 924e e7bc 0e35 61bd
00000060: 3e54 e8bc cad0 3d3d 9343 363d 1f6a 763d
00000070: 5057 963a 5929 f6bc a0a8 b33b de3a 0abd
00000080: c290 a93c ecf0 e7bb 0971 16bd 5263 d539
00000090: 8c00 113d 0b59 fe39 b68a babc b6b0 693d
000000a0: 93be 4d3d ad27 e4bc f2db 09bd 6b9c 883c
000000b0: 1482 04bd d59f d63c 9d93 873c 51b7 5cbd
000000c0: d16d b8bc f47d 623c

fc2.weight f4 [10, 50]
-0.053823084 0.078551225 0.05715873 -0.070604764 0.012186648 0.06788421 0.05907692 -0.15351787
-0.076909944 0.14408989 0.011010728 -0.0004938412 -0.07151945 -0.09503497 -0.10736651 -0.08497507
0.027104119 -0.1403087 0.16898277 -0.108675554 -0.1013483 0.027589018 -0.19774926 0.07187966
-0.016077243 -0.08817508 0.11236201 0.156457 -0.107132725 0.016960993 0.06458843 0.16546097
-0.089754984 -0.05525743 -0.19720085 0.04354345 -0.09706012 -0.08797346 0.042080853 -0.19695842
-0.21186477 0.12032756 0.17552087 0.011601162 0.01237312 -0.23113213 0.12991558 -0.11354546
0.058258515 -0.0025030763 -0.023365049 -0.007931348 -0.19672778 0.05447248 -0.047134683 -0.13823155
0.019374065 0.099682696 0.006665341 -0.15172437 0.11841679 0.031729717 -0.21867958 0.18116732
0.028401718 -0.114447504 -0.08614277 0.05197536 0.14445256 -0.11695293 -0.000852738 0.13469146
-0.022259548 0.061376564 0.013713463 0.050758272 -0.1949955 0.10024843 0.174679 0.07615903
-0.1121067 -0.05745312 -0.06881237 0.015237203 0.10072306 -0.15165946 -0.06584964 -0.046448592
0.087744944 -0.13348421 0.19911347 -0.047893163 0.100141615 -0.0052662017 0.018523276 0.06442235
-0.16148765 0.005837663 -0.054576714 -0.12012268 -0.030958662 -0.115169935 -0.16378778 -0.083479635
-0.050857857 -0.11546566 0.07458011 0.15138952 0.109354384 -0.018786527 0.15410301 -0.057021037
-0.16092497 -0.06729846 -0.06928359 -0.115285486 0.010563634 -0.026355581 0.13894305 -0.09729111
-0.02518385 -0.06769536 -0.12848273 -0.13870965 -0.013976785 -0.05674217 -0.18512249 0.09077527
-0.009911987 0.18352589 0.12902957 -0.09223552 -0.018989874 0.11481474 -0.17377707 0.11918486
0.01633634 0.025968324 0.13676618 0.2274003 0.06431613 -0.09237192 0.09103618 -0.023442883
-0.047822498 -0.035572194 -0.008203447 0.008538105 0.20101999 0.026344446 -0.12253127 0.2194082
0.049431004 0.082004294 0.10645383 0.061206136 -0.11741803 -0.023976495 0.13799211 -0.11681988
0.15291117 -0.07117537 -0.05509168 0.014491364 -0.008383312 0.0582927 -0.052058533 0.056473285
0.03377565 0.01334082 -0.1337734 -0.11447792 -0.031908967 -0.12602656 -0.105643995 -0.10886821
0.18967624 0.13601033 0.024261089 -0.14155634 -0.15890154 0.13078718 -0.00533179 -0.03189879
-0.06634212 0.12288911 -0.123069674 -0.021249486 0.03622093 0.1653385 -0.15554789 -0.07989559
-0.10223582 0.12731056 -0.09615089 0.06222905 -0.18464203 -0.058312964 -0.15792 0.08535622
0.0021841985 -0.1870735 0.11457925 -0.043599665 0.05672102 0.10397759 0.09261201 0.080070585
-0.12853521 0.08622968 -0.18906164 -0.044096336 0.1506615 -0.053001665 -0.13711978 -0.02359009
-0.013459844 0.108468845 0.027980136 -0.06522681 -0.09864701 -0.050461084 0.041756023 0.078999
-0.100774884 -0.016580297 0.0728873 -0.18577874 -0.16431673 -0.08349339 -0.029787242 0.11678369
0.0076299747 0.02599098 0.17400552 0.06323604 -0.096587464 0.12254309 0.0060238605 -0.09278642
0.03903032 0.09857907 -0.089127205 -0.040427748 -0.059314243 0.022410918 0.0883824 -0.073266424
-0.13178802 0.11812991 0.0047290646 0.054969843 -0.03747884 0.10058954 -0.13377029 0.040950574
00000000: 9875 5cbd 77df a03d 461f 6a3d 3b99 90bd
00000010: 82aa 473c e006 8b3d a4fa 713d ca33 1dbe
00000020: f682 9dbd 4d8c 133e 5766 343c 1f75 01ba
00000030: ca78 92bd b2a1 c2bd f9e2 dbbd 6907 aebd
00000040: 7509 de3c 15ad 0fbe d209 2d3e 4a91 debd
00000050: b38f cfbd 5d02 e23c c87e 4abe a535 933d
00000060: 6cb4 83bc 2395 b4bd 0e1e e63d 4436 203e
00000070: 6768 dbbd c8f1 8a3c f046 843d 9a6e 293e
00000080: 76d1 b7bd 9d55 62bd 05ef 49be 9e5a 323d
00000090: 75c7 c6bd 6e2b b4bd f95c 2c3d 78af 49be
000000a0: 14f3 58be 4c6e f63d bebb 333e cd12 3e3c
000000b0: a0b8 4a3c e7ad 6cbe 9708 053e 868a e8bd
000000c0: 7ba0 6e3d a70a 24bb 0f68 bfbc 7cf2 01bc
000000d0: 0273 49be 891e 5f3d 4c10 41bd 928c 0dbe
000000e0: 5cb6 9e3c 7126 cc3d ef68 da3b a25d 1bbe
000000f0: 8184 f23d 05f7 013d 8aed 5fbe ed83 393e
00000100: b8aa e83c 7463 eabd 9f6b b0bd 1de4 543d
00000110: 5feb 133e 0585 efbd 478a 5fba 8fec 093e
00000120: a859 b6bc fe65 7b3d 6fae 603c e8e7 4f3d
00000130: e6ac 47be 0d4f cd3d 0ddf 323e 44f9 9b3d
00000140: 3398 e5bd f653 6bbd 80ed 8cbd 76a5 793c
00000150: e447 ce3d 9e4c 1bbe 2ddc 86bd e140 3ebd
00000160: 9fb3 b33d 16b0 08be 67e4 4b3e 9f2b 44bd
00000170: 0c17 cd3d 1a90 acbb 20be 973c ddef 833d
00000180: 055d 25be de49 bf3b d58b 5fbd e102 f6bd
00000190: 059d fdbc 37de ebbd fcb7 27be 5ff7 aabd
000001a0: 5450 50bd 4379 ecbd 75bd 983d db05 1b3e
000001b0: 31f5 df3d 34e6 99bc 2ecd 1d3e e48e 69bd
000001c0: 84c9 24be c6d3 89bd 8ee4 8dbd cc1a ecbd
000001d0: 1813 2d3c a9e7 d7bc 1647 0e3e 9040 c7bd
000001e0: 5d4e cebc dda3 8abd fa90 03be e709 0ebe
000001f0: e3fe 64bc 7a6a 68bd c090 3dbe 62e8 b93d
00000200: e365 22bc 36ee 3b3e 5420 043e fae5 bcbd
00000210: a790 9bbc fe23 eb3d 9ef2 31be 3117 f43d
00000220: cad3 853c 86bb d43c 6f0c 0c3e a0db 683e
00000230: 2db8 833d 7d2d bdbd 2d71 ba3d 4a0b c0bc
00000240: 86e1 43bd 26b4 11bd c067 06bc 68e3 0b3c
00000250: 2fd8 4d3e 4fd0 d73c adf1 fabd 8bac 603e
00000260: 2a78 4a3d def1 a73d 7704 da3d 49b3 7a3d
00000270: dd78 f0bd 5b6a c4bc ce4d 0d3e 433f efbd
00000280: bf94 1c3e 64c4 91bd d0a7 61bd 306d 6d3c
00000290: 295a 09bc 54c4 6e3d 543b 55bd 8850 673d
000002a0: 5658 0a3d 7493 5a3c e5fb 08be 6673 eabd
000002b0: fab2 02bd 1b0d 01be e15b d8bd 4cf6 debd
000002c0: 7d3a 423e 4b46 0b3e 31bf c63c 25f4 10be
000002d0: 16b7 22be 13ed 053e 4cb6 aebb 4ea8 02bd
000002e0: 61de 87bd 49ad fb3d f40b fcbd 6713 aebc
000002f0: 665c 143d 7f4e 293e f247 1fbe 4da0 a3bd
00000300: 0361 d1bd b35d 023e c2ea c4bd e3e3 7e3d
00000310: cd12 3dbe 93d9 6ebd c8b5 21be 3ecf ae3d
00000320: c524 0f3b 3290 3fbe 87a8 ea3d 9095 32bd
00000330: 4d54 683d 34f2 d43d 5eab bd3d 0cfc a33d
00000340: bc9e 03be 3099 b03d 6099 41be 5c9e 34bd
00000350: 0247 1a3e 4618 59bd 2169 0cbe 0140 c1bc
00000360: ad86 5cbc ea24 de3d 9936 e53c a295 85bd
00000370: 7207 cabd 48b0 4ebd 5d08 2b3d 3aca a13d
00000380: 1063 cebd 67d3 87bc f045 953d c83c 3ebe
00000390: a542 28be 95fe aabd 6004 f4bc 4a2c ef3d
000003a0: de04 fa3b 09eb d43c 812e 323e e681 813d
000003b0: a6cf c5bd dff7 fa3d ce63 c53b ce06 bebd
000003c0: 42de 1f3d d3e3 c93d 5388 b6bd 9197 25bd
000003d0: 7ef3 72bd 1a97 b73c d501 b53d b50c 96bd
000003e0: 70f3 06be 18ee f13d 45f6 9a3b 0f28 613d
000003f0: 6a83 19bd e401 ce3d 14fb 08be cabb 273d

fc2.bias f4 [10]
0.055241313 0.16925614 0.04266517 0.056485854 0.03339817 0.047624707 -0.017855404 0.05141636
-0.09552646 0.018283755
00000000: b744 623d 7b51 2d3e acc1 2e3d b65d 673d
00000010: 85cc 083d 2012 433d 7f45 92bc f699 523d
00000020: 60a3 c3bd d0c7 953c
