Project5_Recognition_using_Deep_Networks/testGreek.pth (torch, 88984 bytes, 8 tensors)

conv1.weight f4 [10, 1, 5, 5]
000000 5e f6 ab bd da 43 aa bd fc 4a f7 bd 84 83 5f bd
       -0.083966 -0.08313723 -0.12074849 -0.054568782
000010 39 ce 48 3e 69 c7 f4 bd 70 66 9f 3d db 7b 4c 3d
       0.19609918 -0.11952097 0.0778321 0.049922805
000020 91 74 e0 3d 5f 42 14 be 45 a9 0b 3e 6d 81 1a 3e
       0.10959733 -0.14478444 0.1363879 0.15088435
000030 ed 93 f5 bd 60 98 83 bd 96 f8 7c be cf 1d 13 3e
       -0.11991105 -0.064255476 -0.24704203 0.1436684
000040 74 df 17 3e 25 83 09 be 38 51 4e 3d ce 7b 51 3d
       0.14831334 -0.13428934 0.050370425 0.05114346
000050 4c b8 af 3d f3 8c cb 3b 6a 64 94 bd 78 c2 61 be
       0.08580074 0.006211871 -0.07245715 -0.2204684
000060 b8 d8 5b be fa 59 c9 3d ec 9a 0c 3e 27 de 0e 3e
       -0.2146939 0.09831615 0.13730973 0.13951932
000070 17 e6 39 3d 8f 02 34 be 39 98 25 3e da a0 90 3d
       0.045385446 -0.17579101 0.1617135 0.0706193
000080 b9 14 12 be 59 15 66 3e aa e3 2c 3e 65 5f 60 bd
       -0.14265718 0.22469081 0.16883722 -0.054778475
000090 95 ad 45 bd f1 97 e8 bd 19 8b c4 bc 6b 30 4c 3d
       -0.048261244 -0.113571055 -0.023992108 0.049850862
0000a0 25 8a 48 be 3d f5 a3 3c 1c c2 2d 3e 09 00 00 be
       -0.19583948 0.0200144 0.16968578 -0.12500013
0000b0 b7 40 1d 3e 34 e1 76 be 75 26 96 3d aa 2d 66 b9
       0.15356718 -0.24109346 0.07331554 -0.0002195152
0000c0 a6 62 91 3d 01 26 88 3e 25 50 98 be 30 98 51 bd
       0.07098894 0.26591495 -0.29748645 -0.051170528
0000d0 b0 2d d6 3d 7d 0a 41 3e 3b 57 31 3e 1b 5f d1 3b
       0.10457933 0.18851657 0.17318432 0.0063895113
0000e0 97 b3 11 3d fd 74 8e 3d d2 00 9d 3e 22 de 63 3d
       0.03557166 0.069559075 0.30664688 0.055631764
0000f0 86 bf b3 be 1a 6b 25 3e e2 12 a8 3e 67 7e 81 3d
       -0.35107058 0.16154137 0.32826906 0.063229375
000100 70 a8 5e be a5 1d 13 be db 74 21 be 9d f7 da 3e
       -0.21743941 -0.14366777 -0.15767233 0.4276704
000110 e0 f5 87 3e c2 45 3d be ee db 01 be 5d 5b d4 bc
       0.26554775 -0.18483642 -0.12681553 -0.025922472
000120 53 fc cf 3e ac 81 75 3e 8b b0 07 bd dc 9f 17 be
       0.40622196 0.23975247 -0.03312735 -0.14807075
000130 79 10 09 be 45 9b 65 bb 94 0d 9e bd b8 c4 69 be
       -0.1338519 -0.0035035175 -0.077174336 -0.22828948
000140 87 0c 3d be 52 ba 25 be 90 ea c6 bd 84 2a 38 be
       -0.1846181 -0.16184357 -0.09712708 -0.17984968
000150 d1 30 61 be c8 87 41 3d da b5 7e be 9d 4b b1 bc
       -0.21991278 0.04724863 -0.24874058 -0.0216425
000160 f0 b7 3a be ab 16 9c be 4c e7 98 bd e9 a2 82 be
       -0.18234229 -0.30486044 -0.074659914 -0.25514916
000170 8f 5c 86 3c b3 fb 57 bc 13 bd 41 bd 72 e0 0f be
       0.016401557 -0.013182568 -0.047299456 -0.14050463
000180 11 94 85 3c 16 a1 e0 bd c4 f4 54 be ec b5 62 3c
       0.016305955 -0.10968225 -0.20796496 0.013837319
000190 a1 2f 99 3e 37 d2 b5 3e 68 6c f7 3e 1b 2a 64 3e
       0.2991915 0.35511944 0.48324895 0.22281687
0001a0 43 bf 68 3d 13 2e ca 3e 4d 90 1d 3f eb b9 dd 3e
       0.056823026 0.39488277 0.6154831 0.43305907
0001b0 8b ad 66 3e bd c0 99 bd 60 10 25 3d 0b 86 52 3e
       0.22527139 -0.07507465 0.04029882 0.20558946
0001c0 7b 4c 46 3e b7 74 25 be 1b 04 b8 3c 89 4f 6f be
       0.19365112 -0.16157804 0.022462895 -0.23370184
0001d0 71 81 72 bd 00 4c 1c be 26 f1 6e be 4e 5f af be
       -0.059205476 -0.15263367 -0.23334178 -0.342524
0001e0 67 b8 86 be 53 82 87 be 53 92 e9 be 20 14 e6 be
       -0.26312563 -0.26466617 -0.4561945 -0.4493723
0001f0 b0 ad 8f be 77 77 f9 3c 59 94 15 3d 7a 41 26 be
       -0.280622 0.030452473 0.03651843 -0.16235915
000200 8c ce 32 be e7 7e 0a 3e 9e f1 ea bd bf 4d b5 3d
       -0.17461604 0.13524972 -0.11471866 0.088527195
000210 5e dc b0 bd 1a 71 1e 3e 01 22 00 be 38 06 ea 3d
       -0.08635782 0.15472832 -0.12512971 0.114269674
000220 ed 20 b1 3d 69 4a f9 bd 5b 02 86 3d 6b c2 6e 3d
       0.08648858 -0.12172396 0.06543418 0.05829088
000230 5f 34 d8 bd a7 52 b3 bd fd 93 36 3d 16 43 3c be
       -0.10556864 -0.08755999 0.044574726 -0.18384966
000240 3a ea 56 be 52 29 82 be 3f 41 82 be b3 8a 47 be
       -0.20987788 -0.2542215 -0.25440404 -0.19486503
000250 58 76 5d bb 50 e5 8f bd 98 a8 84 bd 2f b3 0b be
       -0.0033792462 -0.0702616 -0.06477469 -0.13642572
000260 e3 2e 15 be e4 a5 e0 bd e1 9b b7 bd 73 77 98 be
       -0.14568667 -0.10969141 -0.089652784 -0.29778633
000270 0e 66 58 be d3 ae 25 be 37 6c 01 be 6f 15 3f be
       -0.21132681 -0.16179971 -0.12638937 -0.1866052
000280 cd 8d 16 be 4d 0d 6c be 87 1a 28 be e9 62 72 be
       -0.1470253 -0.23051949 -0.1641637 -0.23670544
000290 d7 c4 c7 be d0 e0 0f be c2 8f 99 be cc b2 c7 be
       -0.39017364 -0.14050603 -0.2999249 -0.390036
0002a0 f3 b8 4f be d1 ad 6c be 5a 4c f2 3c 43 72 1c be
       -0.20285396 -0.2311318 0.029577423 -0.15277962
0002b0 83 0b 89 be f6 cb a5 be c0 14 9a be 5c f9 37 bd
       -0.26766595 -0.32382172 -0.30093956 -0.044915542
0002c0 a2 db dc bd 97 47 21 3e 1e 7a 89 3e 01 36 37 bc
       -0.10784079 0.15749966 0.2685098 -0.011182309
0002d0 3c a4 b9 bd c0 34 1c be 49 bd 92 3e 39 42 54 3e
       -0.09064528 -0.15254498 0.28660038 0.20728387
0002e0 b0 e7 47 3d b9 6b 87 be 17 fd 86 3b fd 84 91 3e
       0.04880494 -0.26449373 0.004119526 0.28421775
0002f0 6c d4 42 3d 22 ac 6f bd a5 a0 f5 bd 44 72 4d 3e
       0.047565863 -0.058513768 -0.11993531 0.2006312
000300 a5 8f 01 3e ae d3 02 be e0 90 31 3d ca 10 03 3c
       0.12652452 -0.12776062 0.043351054 0.007999608
000310 88 9c 8a 3e ae 90 7a 3e 4a 4c 51 bd ee d2 25 bd
       0.2707255 0.24469253 -0.051098146 -0.04048436
000320 5d 99 53 bd 0e 0d e0 bd 68 d1 11 3e b0 ce a3 bc
       -0.05165993 -0.1093999 0.14240038 -0.019996017
000330 67 3a 35 be ae f8 b7 bd 3a 37 26 3b 42 b8 0d bc
       -0.1769806 -0.08982979 0.0025362507 -0.0086498875
000340 53 5d ec bd 9d 55 86 be d5 ee 27 be f8 63 15 be
       -0.11541238 -0.26237193 -0.16399701 -0.14588916
000350 75 e6 a9 be 4a ea 80 bd 5f 92 8b be ad 88 95 be
       -0.33183637 -0.06294687 -0.2726011 -0.29205838
000360 e5 b4 ae be 7d 49 96 be 13 80 63 be d7 31 70 be
       -0.34122387 -0.29352942 -0.22216825 -0.23456512
000370 bd d8 93 be 93 9a 8b be 9c eb 0f be bb 77 a2 be
       -0.28876296 -0.27266368 -0.14054722 -0.31731972
000380 bf 1a bb bd 23 2c 88 3e f6 80 97 3e a5 6f 85 3b
       -0.09135961 0.26596174 0.29590577 0.004072147
000390 4c d3 5e be 3e 81 0d be 73 7d ab 3e 28 70 88 3d
       -0.21760291 -0.13818833 0.33494148 0.06662017
0003a0 46 3c 2b be 8d 4a 6c 3d 6c 0c 8b be 2c fe 51 3e
       -0.16722211 0.057688285 -0.27157915 0.20507115
0003b0 64 d1 be bc c2 3c 4e be d3 84 aa bd 02 f7 9e bd
       -0.023293205 -0.20140365 -0.083261155 -0.07761957
0003c0 b9 0c f0 3d 2d 6e 0f 3e a3 63 46 be 9e aa fa bc
       0.11721177 0.14006872 -0.19373946 -0.030598935
0003d0 fc a7 24 bd dd 79 2c 3e 55 c8 06 3e fb 5d 1a be
       -0.040199265 0.16843362 0.13162358 -0.15074913
0003e0 01 a1 d9 bd 2b 76 07 bd
       -0.10626412 -0.033071678

conv1.bias f4 [10]
000000 17 9d fa bd 9e 24 d7 3d 04 7e 6d bd 40 b6 ed bc
       -0.12236994 0.10505031 -0.057981506 -0.029017568
000010 c1 c8 10 3f 09 11 31 bd 79 65 5a 3e 7c 4a 82 bb
       0.56556326 -0.043229137 0.21327771 -0.0039761644
000020 6c d4 fd bd a0 a0 84 bd
       -0.12394032 -0.06475949

conv2.weight f4 [20, 10, 5, 5]
000000 31 33 33 38 f2 17 00 3d 17 a0 12 3d f4 04 4c 3b
       4.27246e-05 0.031272836 0.035797205 0.0031130882
000010 15 a0 15 bd 0d 62 77 bb 30 97 fa bc b8 55 56 bc
       -0.03652962 -0.0037747652 -0.03058967 -0.01308196
000020 61 d3 18 bd ee 40 f1 3c e0 88 ea 3a 01 70 23 bd
       -0.03731096 0.029449906 0.0017893575 -0.039901737
000030 8a 80 3f 3d b5 ee 2e 3d 94 8f ad bc 27 5e 58 3d
       0.046753444 0.042708118 -0.021186627 0.052824166
000040 6a 3c c7 3c 29 5e 3b 3d 8a 87 84 bc 5c 3b 38 bd
       0.0243208 0.045744095 -0.016177911 -0.044978485
000050 a5 0f b7 bb 4d 58 f6 bc 02 63 39 3d 86 20 6b 3d
       -0.005586582 -0.030071402 0.045260437 0.057404064
000060 cb 06 46 bd bf 7a 51 3d ad 08 53 bd cd cc bf ba
       -0.048346322 0.05114245 -0.051521946 -0.0014633179
000070 bf 87 57 bd 79 55 96 3c 7c f0 05 bd 94 55 bb bc
       -0.052619692 0.018351303 -0.032700047 -0.022867955
000080 41 eb 50 3d 59 7b 11 bb 27 62 93 3d b3 9a e3 3b
       0.051005606 -0.0022198765 0.071964554 0.006945932
000090 c3 fa 43 3d 1f 82 39 bd 51 d3 41 3d 14 ae 38 bd
       0.047846567 -0.04529011 0.047320668 -0.04508789
0000a0 4e 87 8d bd 9f 13 c7 bc 75 e8 f8 bc e2 c7 3b bd
       -0.06910573 -0.024301348 -0.030384282 -0.04584492
0000b0 99 d4 2d 3d 1a 13 79 3b 11 c6 9a 3c 18 a3 18 3d
       0.042439077 0.003800577 0.018893274 0.037264913
0000c0 d1 b6 b5 3c b5 d5 62 3d 02 bd 60 3d c4 52 81 bd
       0.0221819 0.05537959 0.054867752 -0.063146144
0000d0 8b 3b 2e bd 0d 45 55 bd c0 e9 3e 3d 35 27 93 3d
       -0.042537253 -0.052067805 0.04660964 0.071852125
0000e0 65 79 77 3c 10 05 74 bd 85 95 20 3d fd 15 9d 3c
       0.015104626 -0.05957514 0.039205093 0.019175524
0000f0 74 2c 6a 3a 60 6e 15 3d 93 8a 97 bd fe 8b 3d bd
       0.00089330156 0.036482215 -0.07399478 -0.046276085
000100 a9 0d 8b bc d6 c8 a0 bd b6 81 0d 3c 32 fc 1b bd
       -0.016974287 -0.078508064 0.0086368825 -0.03808231
000110 f8 0b 08 3a 68 ad fc 3c 7f e2 a4 bd 82 aa d6 bd
       0.0005189772 0.030844405 -0.08051013 -0.104817405
000120 21 64 a7 3c 9b d8 27 3d dc 38 4e 3c 60 60 70 3b
       0.020433487 0.040978055 0.0125867985 0.0036678538
000130 21 8c dc 3c 40 a1 99 3a 12 6d fe 3b 62 b7 3d bd
       0.026922287 0.001172103 0.007764467 -0.046317466
000140 73 b5 96 bd 8f aa a5 3c 97 a8 3d bd 37 07 a1 bc
       -0.073588274 0.02022293 -0.046303358 -0.01965676
000150 40 0f fd 3c 87 d9 db bc 70 77 f7 bc 71 12 eb bc
       0.03089106 -0.026837124 -0.03020832 -0.028695317
000160 85 9c 32 3d 2c 27 a6 bc ea f4 06 bb 27 da 33 bd
       0.0436063 -0.02028235 -0.0020592758 -0.04390922
000170 d0 e2 6b bd f5 44 57 bd bb 27 2b bd 5c 2d 94 3d
       -0.057589352 -0.052555997 -0.041785937 0.07235214
000180 a3 5f 85 3d a9 16 a6 3d 54 75 08 bd 66 16 86 3c
       0.06512382 0.08109791 -0.033315018 0.016368102
000190 22 08 1c 3c f9 a1 3e bc 57 c0 9c bc 8c cd ac bd
       0.009523423 -0.011635297 -0.019134684 -0.084376425
0001a0 3e 0d f8 bc 62 bd 1b 3b 83 77 b1 3b ee 01 43 bd
       -0.030279752 0.0023764004 0.0054158582 -0.047609262
0001b0 9f c2 cd bd a4 f1 74 bd b7 19 c7 bb 5b be d9 3c
       -0.10046887 -0.05980076 -0.0060760635 0.026580026
0001c0 1f a1 9c 3b 49 51 a4 bd f3 19 48 3c f3 46 9a 3d
       0.0047799493 -0.080233164 0.012213218 0.07533064
0001d0 8f e5 4a 3e 1b ad 70 3e 41 e6 42 3e 96 83 76 3d
       0.19814132 0.23503534 0.19033147 0.060184084
0001e0 cc 53 1c 3e 8a 85 05 3e 12 b8 b0 3d a4 91 c9 3d
       0.15266341 0.13039222 0.086288586 0.09842232
0001f0 c7 ad 26 3d c8 da b3 bb 3d 6a e0 bc c1 84 17 bc
       0.04069307 -0.0054887272 -0.027394408 -0.00924796
000200 1a 47 89 3c f9 6b 85 3d 0f be 4b bd b4 2c b0 bc
       0.016757537 0.06514735 -0.0497418 -0.021505691
000210 07 6d ec bb 58 1a b6 3a 9e 80 9a 3c f2 05 85 bd
       -0.0072151455 0.0013893349 0.018860158 -0.064952746
000220 08 37 8c bd f8 e1 e3 3c d6 58 8c bd c6 4c 69 3c
       -0.06846434 0.027817711 -0.068528816 0.014239496
000230 f4 2f 0e 3c b5 04 2c 3d b0 82 22 3d 14 5a 85 3d
       0.008678425 0.041996676 0.039675415 0.06511322
000240 32 b7 9c 39 78 84 85 3d 3f f9 51 bb c8 45 a0 3c
       0.0002989113 0.06519407 -0.0032039431 0.019564524
000250 26 d9 82 3d 82 54 90 3d cb cc 64 bd f5 cd ef bb
       0.06389074 0.070473686 -0.05585937 -0.007318253
000260 4c 7d 8d 3d d1 af 8b bb be 8f 06 bd 7e d9 b7 bd
       0.06908664 -0.0042629023 -0.032851927 -0.0897703
000270 c9 b4 59 bc 17 d1 96 3c 92 35 72 3d 6d 99 3a bc
       -0.013287731 0.018410249 0.05913312 -0.011389119
000280 6b b0 2b bd a4 79 ca bd 8f 2c 09 be 57 88 d0 bd
       -0.041916292 -0.09886482 -0.13395904 -0.10182255
000290 69 6a 7b bd c1 54 ae 3c 4f d7 41 3c dd 26 a4 bd
       -0.061380778 0.021280648 0.011831119 -0.08015225
0002a0 ef ed be bd 3c 70 52 3d bb 97 1f 3c a4 22 af 3d
       -0.09322726 0.051376566 0.009740765 0.08551529
0002b0 44 c1 10 3d 81 74 b3 3c 31 01 87 3d e2 f1 07 bd
       0.035340562 0.02190614 0.06592024 -0.03318966
0002c0 39 5a ac 3c 40 47 ba bb e3 90 2f 3c 2c 4d 99 bd
       0.021039115 -0.005684763 0.010715696 -0.074854225
0002d0 f9 2a 98 3b ef 8a 85 3d 45 0f 8c bc 7f f4 68 bc
       0.0046437946 0.0652064 -0.017097125 -0.014218449
0002e0 46 69 33 3d 3c 56 a9 3c a7 e6 00 3d b8 ab 55 3c
       0.04380157 0.020671003 0.031469967 0.013041429
0002f0 be 7e 80 bc e8 46 e0 bc 6a dd 6d bd f3 f1 2e bc
       -0.015685435 -0.02737756 -0.058072485 -0.010677802
000300 67 a2 0b bd 48 eb d1 bb 2d 86 18 3d d5 24 cf bc
       -0.034090426 -0.0064062215 0.037237335 -0.025286118
000310 c1 1b 98 bd 1d 50 36 bd b1 8e ef bc 16 c3 30 bd
       -0.07427169 -0.044509996 -0.029242845 -0.0431548
000320 08 d5 2f 3c 7b 8a 46 3d 9f c0 ff bc f8 da 48 3d
       0.010731943 0.04847191 -0.031219779 0.04903695
000330 2b 93 49 3d 67 99 9c 3c 2e 99 3d bd a7 46 74 3b
       0.049212616 0.019116117 -0.04628866 0.0037273557
000340 d1 25 54 3d e7 cf 30 3d 83 d5 a3 3c d7 88 db bd
       0.051793877 0.04316702 0.019999271 -0.107194595
000350 33 36 bc bd 47 83 43 bc 3f b2 05 bc 15 86 8e 3c
       -0.09190025 -0.011933154 -0.008160173 0.01739792
000360 31 a2 58 bc 03 a6 dc 3c 6a ba fd bb 3e e2 b8 3c
       -0.013222263 0.02693463 -0.0077431696 0.022568818
000370 c1 d9 86 3d 52 bc e9 3d d8 96 95 3c 68 7b 0b bc
       0.06584502 0.114128724 0.018260404 -0.008513309
000380 42 35 ce 3d bd 46 fb bb 37 8e 6f 3d ce f6 b9 3c
       0.10068752 -0.007668345 0.058485236 0.022700693
000390 8a 8d 5c bb a5 66 94 bc 97 b2 8e bc 71 25 33 bd
       -0.00336537 -0.018115351 -0.017419143 -0.04373688
0003a0 45 b2 18 3c 11 2a ac 3b 0d df 3d 3d 94 c3 6d 3c
       0.0093198465 0.005254038 0.046355296 0.0145119615
0003b0 46 9b 47 bd 44 e7 f4 3c 6d 93 a3 3b 74 9f 3c 3c
       -0.048732065 0.029895432 0.0049919398 0.011512626
0003c0 f5 e1 64 bd b5 cd fc bc 21 1a 0b 3c d1 4d ff bc
       -0.055879552 -0.030859808 0.008490116 -0.031165035
0003d0 6d 66 78 3d d9 30 ba bc d7 f8 39 3d 82 bb 17 3d
       0.060644556 -0.02272837 0.045403328 0.037044056
0003e0 47 68 dc 3c b3 f6 84 3c 8d 5a 85 bc 3c 6f 8a bd
       0.026905192 0.016230917 -0.01627853 -0.067594975
0003f0 eb 0b 3a bd e7 58 63 bc b0 28 35 bc cb 19 81 bd
       -0.045421522 -0.013876176 -0.011057064 -0.06303748

conv2.bias f4 [20]
000000 e5 4a 44 bc 89 75 5c bd e2 be 94 3b 17 3e 2c bd
       -0.011980747 -0.053823028 0.0045393566 -0.0420514
000010 00 58 0a 3c 06 1c e9 bb fc 5c 2d 3d 6d 80 77 3d
       0.008443832 -0.0071139364 0.042325005 0.06042521
000020 85 f2 55 3d db f3 06 3d d8 81 66 3d f2 d5 d5 bb
       0.052233238 0.032947402 0.056276172 -0.0065257484
000030 26 c7 9d 3c bf ca 00 bd 6b 4c 5b 3d 37 ff 2e bd
       0.01926 -0.031443354 0.053539675 -0.04272386
000040 82 4e b6 3c d1 cf 66 3d 21 ec 69 3d be e1 2e 3d
       0.022254232 0.056350533 0.057109956 0.042695753

fc1.weight f4 [50, 320]
000000 81 85 1d bd 19 5a c7 bc 7e d4 79 bc 56 34 d7 bb
       -0.038457397 -0.024334954 -0.015248416 -0.006567518
000010 44 96 c7 bc 7b 3b 32 3d d9 4a 20 3c dc f8 7b 3d
       -0.024363644 0.043513756 0.00978347 0.061516628
000020 75 e2 0f 3d fa af 55 3d b5 36 54 3d 14 8f a9 3c
       0.035128076 0.052169777 0.051809985 0.020698108
000030 8f 57 0a bc 21 55 1c 3d 15 e5 0b 3d 83 97 98 3d
       -0.008443727 0.038167123 0.034154017 0.074507736
000040 11 e8 19 3d c1 54 94 3b 9f 86 4c bd a4 e0 9a bc
       0.03757483 0.004526705 -0.049933072 -0.018905945
000050 ef 15 18 3c 0f b5 b9 3c 0b 58 b2 bd 90 4f 14 3d
       0.009282573 0.022669343 -0.08708199 0.03620869
000060 37 4e 9b 3d 02 a9 d1 3d 1d d1 56 3d 57 8a 43 3b
       0.07583278 0.10237314 0.05244552 0.0029837096
000070 ef 56 f8 bc 04 7e 47 bd 88 13 06 bd 3a b4 e1 3c
       -0.03031489 -0.048704162 -0.03273347 0.027551759
000080 3c e6 ee 3c ad 24 76 bd 1b cb 07 3d 51 c3 93 3d
       0.029162519 -0.06009357 0.03315268 0.07214988
000090 d6 4c e5 bc f5 0a 84 bd 16 ae 26 bc 53 b4 68 3c
       -0.02799074 -0.064474024 -0.010173341 0.014203149
0000a0 3a 76 19 3d f4 53 18 3d da ee a6 3d a0 fd 27 bd
       0.037466265 0.03718944 0.08151026 -0.04101336
0000b0 77 3e 80 3d a9 7f 8a 3c 16 6d 6d bc 3c 9d a3 3c
       0.06261914 0.016906576 -0.01449134 0.019972436
0000c0 5a 60 b1 3b 05 11 a9 bd d6 05 47 bc 9c 62 25 bc
       0.0054130973 -0.08255199 -0.0121473875 -0.010094311
0000d0 27 24 5b 3d ea d6 ca bc eb 9c a3 bd fe 29 e9 bd
       0.053501274 -0.024760682 -0.07988914 -0.113849625
0000e0 87 ff cc 3c 05 05 26 3d c3 7c 16 bd 07 73 53 bd
       0.025024189 0.04053213 -0.036740076 -0.05162337
0000f0 ee 75 ca 3b b2 0a 22 bd 06 34 07 3c ca 77 56 3d
       0.006178609 -0.03956098 0.008252149 0.052360334
000100 10 2d 07 bd 04 c2 8f bc 65 b4 2d bc 91 db 28 3d
       -0.03300196 -0.017548569 -0.010602091 0.04122502
000110 a1 f2 29 bc e5 57 80 bc 3a b0 df 3d ea a6 ab 3d
       -0.010372789 -0.015666911 0.109222844 0.08381446
000120 4b ae 54 3c 80 86 ad 3c 53 d4 5b 3c f0 7c 41 bc
       0.012981008 0.021182299 0.013417321 -0.011809573
000130 78 62 41 3c df 7b d8 bb 95 f6 27 3d 93 10 4f bd
       0.011803262 -0.0066065635 0.041006643 -0.050552916
000140 9d 08 62 3c d6 bf 8f bc 67 c1 72 3d 3b 4c b9 3d
       0.013795999 -0.01754753 0.059266474 0.09047743
000150 c3 4f 82 3c 62 94 44 bd 6c f7 c2 3b 74 08 21 3d
       0.015907174 -0.04799307 0.005949905 0.039314702
000160 8b c4 d1 bc 55 70 cf bb 2f ff 4e 3d e4 1c 0a 3d
       -0.025606414 -0.0063305297 0.05053633 0.03371896
000170 97 e3 1f bd 05 70 c3 bc 02 88 82 3d 3c 90 58 bd
       -0.039035406 -0.023857126 0.06373598 -0.052871928
000180 79 c2 6c bd 53 5e 36 3d 19 d8 e6 bc 39 b6 25 3d
       -0.05780265 0.04452355 -0.028179215 0.040456984
000190 cf 45 a7 bc 5f dd 7f 37 ce 23 c6 3c 67 6f 38 3d
       -0.02041903 1.5250726e-05 0.024186995 0.045028117
0001a0 d0 e7 6e bd dd fe d5 3c 18 c0 7d bc 3c d7 a7 3d
       -0.058326542 0.026122505 -0.015487693 0.081953496
0001b0 f3 df d7 bc db 43 cd bc f3 b7 7f bc 05 66 84 3a
       -0.026351904 -0.02505677 -0.015607822 0.0010101205
0001c0 33 d4 13 3d 72 ea 5b 3d d8 47 47 3c 0c 88 35 3d
       0.03609104 0.05369038 0.012163125 0.044319198
0001d0 c1 ab e9 3b 68 54 e5 bb bf 7e f7 bc 49 ea db bc
       0.0071310704 -0.0069985874 -0.030211804 -0.026845114
0001e0 ed 49 61 bd 4b 12 06 bd ce 06 db 3b a1 4d 93 3d
       -0.05500214 -0.03273229 0.006684161 0.07192541
0001f0 cc a5 c7 bb 6b b4 8f bd eb 62 a0 bc c2 8b 53 bc
       -0.0060927626 -0.07016834 -0.019578418 -0.012911739
000200 c5 16 2d 3d e8 8c 00 3d 8c c1 ec bc d6 b3 da bb
       0.042258043 0.03138438 -0.028900884 -0.00667427
000210 52 ad b6 3a be 00 4a 3c 41 32 2f 3c b6 da 35 bd
       0.0013937152 0.0123292785 0.010693134 -0.044398032
000220 42 27 4e bb 23 97 13 3c f5 fc 06 3b 40 67 fb bc
       -0.0031456505 0.009008202 0.0020597551 -0.030688882
000230 0a 11 c5 3c 68 9b 77 bd 83 ae c8 bc a1 6a 81 bd
       0.024055976 -0.06045094 -0.024497276 -0.06319166
000240 4a f8 be bc 8c 10 f1 3c 38 4c 7f bd 1f 70 3a bb
       -0.023311753 0.029426835 -0.062328547 -0.0028448177
000250 87 be 4c 3d 91 aa 88 3c d6 66 03 bd 6e b1 f2 3c
       0.04998639 0.016682895 -0.032080494 0.02962562
000260 5c dc 94 bc e9 15 69 3c e0 36 39 3c 13 8e 63 3c
       -0.018171482 0.014226415 0.011304587 0.013888854
000270 de cf 78 3c 99 d7 56 bd 19 53 ab 3c ef 1e 0c bc
       0.015186278 -0.052451704 0.020913647 -0.008552297
000280 05 3f 8d 3d c0 db db 3c b7 20 86 bc d0 9f 7a bc
       0.06896786 0.026838183 -0.016373022 -0.015296891
000290 de 84 61 bc 20 5d 07 3d 07 64 52 3d 5b 36 37 bd
       -0.013764588 0.033047795 0.051364925 -0.04472957
0002a0 0f 00 ba bc 8b 9d 4e bd 1a 3e 3e 3d ed 39 42 3d
       -0.022705106 -0.050443213 0.046445943 0.047418524
0002b0 d4 2b 63 bc b8 c3 92 3a d3 54 cd bc 32 39 2e bb
       -0.01386543 0.0011197245 -0.025064861 -0.0026584384
0002c0 ce 06 40 3c 82 45 b8 3d 4b d6 61 3c 2c 06 c5 bc
       0.011720372 0.089976326 0.013784002 -0.024050795
0002d0 b0 8c a8 bc aa 6a 01 bd bb 9c 9d 3a 5e 9b 3f bd
       -0.020574898 -0.031595863 0.0012024859 -0.04677903
0002e0 6d 1f 58 3c 62 b3 88 3c a9 97 d1 bd 52 21 ac bd
       0.013191086 0.016687099 -0.10234005 -0.08404793
0002f0 8c 57 f3 bb 3f 57 e7 bc d9 53 16 bd 67 86 88 bd
       -0.007426208 -0.028239844 -0.036701057 -0.0666626
000300 62 a4 a4 3d 65 9c ec bc ca 42 96 bd 9c 13 98 bc
       0.08039166 -0.028883168 -0.07336958 -0.018564038
000310 0c a9 23 3d 91 71 a4 3a 86 a2 76 bd 9d 0b 39 bd
       0.039956138 0.0012546052 -0.06021359 -0.04517709
000320 81 24 b0 bd e1 1e 90 bd 28 11 1a bd fd 45 a7 bd
       -0.086007126 -0.0703714 -0.037614018 -0.08167646
000330 03 a4 60 bc 32 10 a1 bc 24 ea fa 3c a6 5b e2 3c
       -0.013710978 -0.019661043 0.030629225 0.027631592
000340 48 a6 0b 3d d4 8b ae 3d 0f a1 22 bd 16 f3 6f 3c
       0.034094125 0.08522764 -0.03970438 0.014645359
000350 48 10 cf 3b 87 05 72 bd 9e 2a 9c 3c b5 1c 21 3b
       0.0063190795 -0.059087303 0.01906329 0.002458376
000360 af ee a4 3c 34 95 6d 3c 48 b1 21 bd c7 de 5b 3d
       0.020133344 0.014500905 -0.03947571 0.053679254
000370 92 b2 2f bc ea 0a 2e 3b 65 df d8 bc af 0c ed bb
       -0.010723727 0.0026556798 -0.02647371 -0.007234178
000380 f9 dd 2a 3d 13 1a 97 3c c4 ed c6 3c f9 d3 7c bc
       0.041715596 0.01844505 0.024283297 -0.015431398
000390 5e 44 15 3c 88 6a 97 3b 30 af df 3c 0d 47 b5 3d
       0.009110538 0.004620854 0.027305216 0.088514425
0003a0 94 e2 e0 3a dd 18 44 bd da 5b c6 3c 29 12 42 3d
       0.0017157369 -0.047875274 0.02421372 0.0473806
0003b0 e3 b5 c0 3c bc 70 b4 bd fa 8e f1 3c 73 7e f5 3a
       0.02352423 -0.08810565 0.029487122 0.0018729701
0003c0 08 c1 0f bc 4c fc d2 bc 03 21 53 3d b4 26 d3 3c
       -0.00877405 -0.02575507 0.051545154 0.025775291
0003d0 f7 6b 66 3c 33 72 59 bd 68 3a bc bc 20 80 56 3d
       0.014063827 -0.053087424 -0.022977069 0.052368283
0003e0 46 e7 52 3c 69 ca 4f 3d 84 00 17 bd de 78 19 3d
       0.012872523 0.050730143 -0.036865726 0.037468784
0003f0 22 40 1f 3d f8 93 c9 bc 49 8c 81 bc d2 86 24 3d
       0.03887952 -0.02460669 -0.015813963 0.040167637

fc1.bias f4 [50]
000000 1f cf fe bc 34 aa 35 3d 1c 0f 4a 3c b5 91 ae 3b
       -0.031104622 0.04435177 0.012332704 0.005327428
000010 e6 e7 1f 3d 65 f3 47 bd 61 36 6b bc e1 25 8b 3c
       0.039039515 -0.048816103 -0.014356227 0.016985836
000020 d9 b2 8f 3b e3 9e 5c bd 77 cd d1 3c 6d 80 bd bc
       0.004385334 -0.053862464 0.025610669 -0.023132527
000030 ec 96 3c bd 8e 1d 73 3c 20 2a d0 3c a5 c9 ec 3c
       -0.046042368 0.014838589 0.025410712 0.028904745
000040 70 25 54 3d 95 7f 7b 3d b5 8b 05 bd 4a 4f a3 bc
       0.051793516 0.06140097 -0.032603938 -0.019935269
000050 b7 9b a5 bc 65 9e 3e 3c 9c 91 3f bd cb 07 05 bb
       -0.020215852 0.011634444 -0.046769723 -0.0020298834
000060 8e 0f 30 bc cf 8f 57 bd fd 72 eb bb 84 58 23 3d
       -0.010745896 -0.05262738 -0.0071853385 0.039879337
000070 58 d6 a4 bc 20 fe e1 bb bd ed 07 bc 6c d2 e3 bc
       -0.020121738 -0.006896749 -0.008296427 -0.027810298
000080 48 5b 89 3c 12 1e 1f bd 31 18 a5 bc 89 8f a2 bc
       0.01676716 -0.038847037 -0.020153137 -0.019843834
000090 86 f2 d6 bc b7 4e 17 3c 1d ba df 3c b7 56 63 bd
       -0.026238691 0.009235076 0.027310425 -0.05550262
0000a0 e5 8b 53 3c 6b 57 7a 3c 40 98 0a bd b1 9b 8c 3d
       0.012911771 0.015279631 -0.033836603 0.06865633
0000b0 97 ba 54 3d 1b 97 80 bc b0 df 23 bd 16 1b 4b bd
       0.05193576 -0.015697053 -0.040008247 -0.049586378
0000c0 18 a7 d2 bc 0d 6e 3a 3d
       -0.025714442 0.04551511

fc2.weight f4 [3, 50]
000000 4d b2 1f 3d 6a f8 d4 bd a1 ae f2 bc 74 63 76 bd
       0.0389884 -0.10398944 -0.029624285 -0.06015344
000010 08 16 89 3d 98 17 ed bd e6 67 e0 bd 16 05 97 3c
       0.06693655 -0.11576766 -0.10957317 0.018435042
000020 d1 a9 1d be 5b 05 1b bd b7 1d 85 3b fa c2 00 bc
       -0.15396811 -0.037846904 0.00406238 -0.007858986
000030 30 ef 34 bd ad c0 98 bd 9a a7 82 bd 33 05 8a bd
       -0.04417342 -0.07458625 -0.06379624 -0.06739273
000040 90 f5 a0 3c dc 0d d8 bd d3 19 20 3d b6 f2 3b 3c
       0.019648343 -0.105495185 0.039087128 0.011471441
000050 a0 81 40 bc 53 92 de 3c 1e ea 0d 3b 42 61 cb 3d
       -0.011749655 0.027169382 0.0021654437 0.0993066
000060 24 22 57 3d 5f ac 1e 3c b4 8d 51 bd 09 a1 0a 3c
       0.052522793 0.009684651 -0.05116053 0.008461245
000070 0c f1 11 3d 01 3b 3c 3d 54 79 e2 bd 74 a2 26 3d
       0.03563027 0.045954708 -0.11058298 0.04068227
000080 60 9b 72 3c 93 32 0c 3d ac 6d 39 bd b0 c1 ee 3c
       0.014807552 0.03422792 -0.045270607 0.029145092
000090 49 26 a4 3d 20 4b a1 3c bb 0a 82 3c 34 93 0f 3c
       0.08015115 0.019689143 0.015874257 0.008763123
0000a0 7d 95 e7 3c 8d b1 0e 3e 0e c2 4d 3c 89 eb 32 bd
       0.028269524 0.13934918 0.012558473 -0.043681655
0000b0 7e 80 b8 3d 3c 59 e5 bd f1 e5 b0 bd 4f ae 0e be
       0.09008883 -0.11198661 -0.08637608 -0.13933681
0000c0 dc 09 e1 bc 08 ee 96 bd 95 c9 68 bd 7c 34 f5 3d
       -0.027470522 -0.073696196 -0.05683287 0.11972901
0000d0 65 b7 a2 bd 38 ed 87 3c 72 69 22 3d ae 0f 99 3d
       -0.07945136 0.016592607 0.03965134 0.07473694
0000e0 ca 2b 86 bd 62 94 e7 bd 0a 77 70 3d 5e bc 42 bc
       -0.06551321 -0.11307599 0.058707274 -0.011885731
0000f0 0a 4f b1 3d 9e a8 c2 bd 0c 76 34 3d 90 12 48 3b
       0.08657654 -0.095048174 0.04405789 0.0030528642
000100 10 28 5d 3d b4 5c 0a 3e b2 57 a6 bd c5 22 1d be
       0.053993285 0.13511926 -0.08122195 -0.15345295
000110 e6 74 fc bd 9b 1f 03 bd ca af 68 bd b9 e1 b8 3d
       -0.12326984 -0.032012563 -0.05680827 0.09027428
000120 54 cc ef bd 68 7b 81 bc 49 4b 78 3d 43 52 57 bd
       -0.11708894 -0.015805915 0.060618673 -0.052568685
000130 cc 8e c6 bd 7b d4 88 bd a5 74 65 bd 8d b3 6d 3d
       -0.09695205 -0.066811524 -0.056019444 0.05803256
000140 57 cb 7e bd c0 f0 91 3d 28 90 5d 3d 95 67 5f 3d
       -0.06220564 0.071259975 0.054092556 0.054542143
000150 44 52 d7 bd 38 a3 d4 3d 8d ff c5 3c 70 c9 3d bc
       -0.10513738 0.10382694 0.024169708 -0.011583671
000160 be 83 f5 3c cc c9 ce 3d c4 55 04 bd 7a 33 ba bd
       0.029970046 0.100970834 -0.032308355 -0.090918496
000170 c5 4b ce bd db bb 5a 3d 5c 70 e1 bd 3a 09 bc bd
       -0.10073046 0.05340181 -0.11007759 -0.09181447
000180 58 c8 23 bd 5d bb 61 3d 34 0f 9a bc f3 0e 05 be
       -0.039985985 0.055110324 -0.018806078 -0.12993984
000190 01 2b 3d 3d 36 20 7a 3d 2c 5f f5 bd 66 b8 be 3d
       0.04618359 0.061065875 -0.11981043 0.09312515
0001a0 1d e1 a0 3d 12 11 a8 3d 15 88 dc bd 81 e3 7b 3d
       0.07855437 0.08206381 -0.10768143 0.06149626
0001b0 be c6 10 3e 9a ac f3 bb 52 9d e8 bd d1 0f 9b 3d
       0.14138314 -0.007436347 -0.113581315 0.07571376
0001c0 d5 50 a0 bd e6 23 14 bc 3c 64 1f bd 41 0c 99 ba
       -0.078279175 -0.009041762 -0.03891395 -0.0011676626
0001d0 80 dd b9 3b 3e ba ec 3c 42 f5 21 bc 8b 89 51 bc
       0.005672157 0.028897401 -0.009885134 -0.01278914
0001e0 7a 30 b9 3d 84 7c ef bc b7 ef a7 bd 2f ed 0d 3e
       0.09042449 -0.029234178 -0.08200019 0.1386001
0001f0 6b 68 eb bd 03 a5 b7 3d 5a 0a 7f bd 0c b1 92 3d
       -0.114945255 0.0896702 -0.06226573 0.07162675
000200 84 74 15 be 4b 72 e3 3d 19 6a 70 bd 20 55 c6 3d
       -0.14595228 0.11105784 -0.058694933 0.09684205
000210 d8 96 83 bc af 6a ec bd f8 6b b2 3d 18 6b d1 3d
       -0.016063139 -0.11543786 0.08712 0.10225505
000220 59 be b0 3d d6 fe 0f be 39 72 54 3d 97 37 a2 bd
       0.08630056 -0.14062056 0.051866744 -0.07920759
000230 63 9f 26 3e f6 27 a3 bd ba ee 18 bd f6 a7 90 bc
       0.16271739 -0.07966606 -0.037337042 -0.017658215
000240 d6 9c 8c bd 38 60 a6 bc 88 f8 0c be cd 3c 22 3c
       -0.068658516 -0.020309553 -0.13766682 0.009902191
000250 2a 35 e6 3d aa 7d e7 3d
       0.11240609 0.113032654

fc2.bias f4 [3]
000000 04 10 5c bd 66 54 d4 bb 17 66 5c 3d
       -0.05372621 -0.0064797876 0.053808298
